saved_weights.npz (npz, 876872 bytes, 6 tensors)

weight_0 f8 [128, 784]
000000 7e 20 3b ef 54 47 a4 bf cd c2 18 69 b9 79 86 3f
       -0.039606718256949044 0.010974358100697934
000010 76 a8 4a 84 e6 79 98 3f 85 3b 33 ef d1 c0 a1 bf
       0.023902513336601726 -0.03467422528193879
000020 d3 61 ca 65 7a be 81 bf cd f2 be e3 6f c8 92 3f
       -0.00866408942356226 0.018342731738573193
000030 d8 9e e9 d4 a4 56 a4 bf db da 3d 5c 0b c7 a3 bf
       -0.039723540296845605 -0.03862796307560298
000040 8f 8b 0b 3a 03 85 9a 3f 77 c2 1a ce 8d e6 8f 3f
       0.025898027818481103 0.015576465465842333
000050 5b 95 42 78 8e b6 75 bf 96 9b c1 12 bb ef ab bf
       -0.005301052591822976 -0.05456337551077366
000060 43 71 34 10 39 2e b7 bf 9f c0 85 ac 73 bc 7e bf
       -0.0905490555346136 -0.007503940440401063
000070 f0 fb 3e a0 47 02 4e 3f 32 a7 16 e9 60 49 74 bf
       0.0009157991157663341 -0.004952791744850237
000080 c4 53 82 0f bb 0d a1 3f c1 fe e9 ca c1 3f 95 3f
       0.03330788196868853 0.020751026162996625
000090 75 b8 18 96 cd 44 a3 bf 37 b8 99 db 9d f0 93 bf
       -0.03763430077775435 -0.019472567108486962
0000a0 f1 c1 38 77 a1 b6 7a bf cb 3e a1 82 9d e0 b1 3f
       -0.006521826482228197 0.06983360709386514
0000b0 69 35 de 10 46 ae a1 bf 1d d0 c1 81 8a f5 97 bf
       -0.034532727774698575 -0.023397602243179095
0000c0 38 4a 57 b9 b0 35 bb bf f0 db dd 1f 64 43 a7 bf
       -0.10628799939085176 -0.04543602837559735
0000d0 4e ed 35 46 33 98 a3 bf 21 6b c5 1f 60 ba aa bf
       -0.03827057106078745 -0.05220318210441222
0000e0 8f 6d 15 de 96 a8 b9 bf 84 2a 00 56 ce 6d a5 bf
       -0.10022871896710782 -0.041853378294111315
0000f0 4b 4d 98 e6 93 32 85 3f 85 81 0a 56 0a d7 bb 3f
       0.010350375628184102 0.1087500057278757
000100 c8 4f fd 02 fd d0 a4 bf 62 d3 62 d1 00 4f b6 bf
       -0.04065695439808753 -0.08714299308742349
000110 cd c3 91 53 f6 b0 a7 bf 4e 2e 1a b5 23 d4 aa bf
       -0.04627198953756526 -0.052399745804987505
000120 49 13 9c 55 bb ae ac bf 5e 80 8d fb b6 4c ba bf
       -0.0560205976490012 -0.10273307458328548
000130 1f f6 1e 51 42 06 90 3f 1d 65 fd 69 fd c4 ab 3f
       0.015648876382092888 0.05423728865452857
000140 95 11 87 7f 48 30 9d bf 89 48 1d 7e 51 20 87 bf
       -0.028504498275439955 -0.011292111073690119
000150 dd 96 75 86 67 3a ad bf d0 31 1b 11 3d d6 a4 3f
       -0.057086215175144985 0.040697010362780284
000160 a5 dc cf 1f 2d e9 a9 bf d4 ef d6 c9 0e 5f 97 3f
       -0.05060711873368832 0.02282355410510191
000170 d0 5f 78 7a 6d d9 9b bf 75 02 1b bf 87 73 a7 bf
       -0.027196608161915325 -0.0458033009322251
000180 30 6f 4c 4f e4 c9 a9 bf 89 3a 00 3c 26 67 98 bf
       -0.050368437461854376 -0.023830983554996386
000190 c5 80 a2 3a c1 fe a3 bf 36 69 0f 38 31 3c a1 bf
       -0.0390529998851448 -0.03366235551193812
0001a0 9c d9 07 f3 c7 7b 6a bf 0c 0b 8a 7b 72 89 a2 bf
       -0.003232851530124493 -0.03620488889739279
0001b0 b1 23 c1 ba 14 7d 96 bf 81 47 2b 89 50 6a ad bf
       -0.02196152105196675 -0.05745174097468376
0001c0 07 24 76 51 31 4b b4 bf 81 eb b8 96 bc 20 a4 bf
       -0.079272348774012 -0.03931226100799901
0001d0 65 4d 01 9f 13 ec 9b bf 80 e3 53 26 2a 70 b6 3f
       -0.027267748432064382 0.08764899669394133
0001e0 86 36 16 71 b9 c3 b6 3f 2d b1 34 e6 ef 39 9d bf
       0.08892401705653627 -0.02854132502140876
0001f0 19 46 f7 4c f4 2e 73 3f 46 49 d6 d9 14 b1 bb bf
       0.004683450984388959 -0.10817079847609987
000200 82 1e aa 6d b1 e1 a1 bf 74 82 e3 9b 57 db a7 bf
       -0.034925026547225194 -0.04659532335222574
000210 20 d4 be cb a9 d0 a2 3f 2a b0 e9 bf d0 ed 96 bf
       0.03674822437407266 -0.02239156886427921
000220 27 81 02 5e d1 33 b1 3f d5 42 d1 24 b1 72 83 bf
       0.06719692750130389 -0.009496101318434405
000230 c0 76 15 f9 a2 d0 71 bf 8e 3f da 42 f7 90 90 3f
       -0.004349362004487822 0.01617800088439441
000240 d9 cd 67 ed 8d de 90 3f ca da d3 82 73 50 b7 bf
       0.016473977675515037 -0.09107133811981352
000250 18 5a e2 61 a2 67 7b bf 45 c6 0a 73 cd 0e 9a bf
       -0.006690630251020589 -0.02544709219609433
000260 40 71 f0 80 94 2c 85 3f a8 a9 30 aa 8f c7 89 bf
       0.010338936028397527 -0.012587664014138536
000270 87 ea de 43 f8 53 7e bf 0d ed 54 03 a9 90 ba bf
       -0.007404298577905372 -0.1037698395856987
000280 8e d5 ad 03 9b 85 b3 3f b4 a1 bd 8c 59 f8 92 3f
       0.0762574085218459 0.018525504317411026
000290 6a af ea a4 5d ac 9e bf 80 7e 75 fe b0 61 a4 bf
       -0.029954398337096157 -0.03980782610119338
0002a0 7b d1 4c 8a f8 d9 6b 3f 21 d9 8d f3 cf 3b b5 3f
       0.003399835043092545 0.08294391342301256
0002b0 96 c7 dc 87 74 94 af 3f 1b 9f 68 67 57 28 99 3f
       0.06167949827648937 0.024567952810826115
0002c0 99 e9 2b d4 5e e2 93 3f 87 09 6b b0 1e 87 a4 bf
       0.01941822214119213 -0.04009338286916191
0002d0 12 2e 32 28 c7 04 81 3f 9b c1 23 78 c3 07 8e bf
       0.008309894479928057 -0.01466324530017076
0002e0 71 38 22 8e 1e 5c b0 3f f1 ae 1c d8 06 03 97 bf
       0.063905629826168 -0.022472483578140637
0002f0 85 27 68 f0 e2 60 84 bf 94 1d 19 90 62 0d a4 3f
       -0.009950421296725196 0.03916461953172781
000300 49 98 f1 b9 1b ea 92 3f 27 7f fb 28 62 bb 63 3f
       0.018471177314858065 0.0024086873234948794
000310 12 15 7a f7 10 40 a6 3f 35 a6 03 02 2e 2b 74 bf
       0.0434575368972593 -0.004923991888270464
000320 d2 43 bd 3e 0b c5 a8 3f 4f f3 56 7f ef c3 8d 3f
       0.04837832585202019 0.014533873628232689
000330 98 d7 3c 94 61 96 98 bf bd f1 55 71 fb 06 58 bf
       -0.024011158631047275 -0.0014665084357537849
000340 db 4b 4b aa 74 29 91 3f cc 54 32 a0 f6 4c 9f bf
       0.016759703535011865 -0.03056702950251093
000350 c4 95 52 3c a8 65 41 bf d7 c1 df 87 98 07 74 3f
       -0.0005309173071920627 0.004890056441567889
000360 84 e5 f8 b6 c9 7f 89 3f 68 57 30 25 88 d2 b1 3f
       0.012450767418260573 0.06961871059351454
000370 b0 b7 c1 7b fb 4b b4 bf e8 9a d3 a8 24 f1 ae bf
       -0.07928439875988036 -0.060433526619638134
000380 6c d4 16 f8 04 94 b0 bf 76 25 f4 74 61 2f 70 bf
       -0.06475859696259229 -0.003951435747930323
000390 b0 e3 9f d2 c0 eb 88 3f 7b e8 10 e6 61 b6 aa 3f
       0.012168413570167264 0.05217271741317205
0003a0 29 40 bb 08 a1 58 ab bf b7 7a 97 62 77 72 be bf
       -0.05341056090912872 -0.11893411786102602
0003b0 47 d2 5a cb c5 57 62 3f a4 bf 5e 0b 62 01 b3 3f
       0.0022391188784587654 0.07423985269156091
0003c0 f8 e9 d2 4b 10 0d 93 3f 10 83 5d 6c 7f 21 68 bf
       0.018604521396563073 -0.0029456604706158476
0003d0 b4 9f 8e 71 5f 77 b0 bf 87 fc 6d 9f 74 ae a8 bf
       -0.06432148477926952 -0.04820599027788668
0003e0 29 da 87 de e4 96 93 bf b8 8c 7e 48 5f f0 8e bf
       -0.01913030250758588 -0.015106911086894534
0003f0 b7 09 8e e2 23 b3 bb bf b0 04 ca a6 ad b1 ad bf
       -0.10820221215366287 -0.057996203050615036
000400 c5 32 38 ac 8f a0 ae bf b1 54 92 35 9d 19 9d 3f
       -0.05981873490609283 0.028418022532225865
000410 9b 76 e0 1c 1e 1f 9d bf 80 90 71 f5 7a dd 8b bf
       -0.028439016830921742 -0.013606033912033633
000420 82 c8 2b 1d 4b 5a 9e bf e1 c5 48 8b a5 02 a3 3f
       -0.02964131703897311 0.037129567387079516
000430 b5 3d 21 84 be 89 98 3f 73 ae cf ff 15 2c a6 3f
       0.023962952436986835 0.04330509898849479
000440 6d 17 25 5a f6 4e a6 3f 99 1b 2e 3f 2b 45 b1 3f
       0.0435711846389911 0.0674616841553032
000450 01 d7 11 5f 81 80 a8 bf c0 51 44 19 10 c1 a6 bf
       -0.047855418067156215 -0.044441702923140536
000460 63 b7 93 71 5c 6c 99 bf 02 21 63 ec 15 08 ad bf
       -0.024827427322569828 -0.056702313524114714
000470 9b 4c 65 57 26 e8 ae bf 40 45 52 8c 67 56 90 bf
       -0.06036491219369929 -0.015954606952225392
000480 40 17 17 7c 28 e6 aa 3f 80 6c b2 72 a1 1d 73 bf
       0.052537217281083404 -0.00466692987097439
000490 c8 ec 60 14 22 70 8d bf 41 6d 7e 31 7a 79 aa bf
       -0.014374033209710993 -0.05170804838345556
0004a0 ec df 39 7d e3 48 75 bf cd 8f 29 a6 02 f1 91 3f
       -0.0051964651389582 0.017520944015259766
0004b0 3f be 46 83 ba a8 98 3f ce eb cb 0f 87 cf a0 bf
       0.024081148397895765 -0.0328333098204535
0004c0 32 6d a7 7d 9a b9 99 bf 32 53 e4 ec b8 81 af bf
       -0.02512208358699048 -0.06153657809969672
0004d0 2a 96 2a eb 95 f6 bc bf ce e4 7c 5a 6f d3 a0 bf
       -0.11313759795538006 -0.03286312083805286
0004e0 b8 d1 f5 7e 4c e9 95 bf 06 1c 1a 11 04 16 aa 3f
       -0.02139777684119945 0.05094921787991073
0004f0 2a d4 04 7e ce 06 b3 bf 45 d5 e2 cb 21 b1 96 bf
       -0.07432261063225157 -0.02216008002206606
000500 ba 10 36 56 d6 6c b2 bf 0d 98 fd 8d 54 04 90 3f
       -0.07197322468533943 0.01564151875154356
000510 fa d8 1c d0 97 ad 76 3f a5 51 42 b6 f8 71 89 3f
       0.005536644954011511 0.012424414693932581
000520 02 40 b4 b4 58 27 ab bf 3d 67 0e 89 55 ff ab 3f
       -0.05303456502781502 0.054682419758320645
000530 2d 58 11 93 eb 9b a2 bf c3 d4 4a c0 95 07 a7 3f
       -0.036345826819044504 0.04497974369352555
000540 9e f0 5c cf 13 69 a3 3f 96 4d d2 ba 29 b6 77 3f
       0.03791105181014241 0.005788958556098752
000550 20 50 9b ee a0 5d 12 3f c4 c8 b5 a4 c7 c0 75 3f
       7.005972625090439e-05 0.005310802323366729
000560 e3 f2 0b 17 5d af 93 bf 15 d1 0e 14 b1 34 5f bf
       -0.01922364667096844 -0.0019046525269291227
000570 10 8f 27 03 7c 1c a2 bf 2a 4d 64 6c 61 fb 72 3f
       -0.035373568902086316 0.00463426643388524
000580 5d bd 70 36 80 84 a4 3f 51 0e cc 16 5f 74 b2 3f
       0.040073401113086084 0.0720881872803656
000590 07 10 78 ce b8 71 bf 3f fe 81 c7 bb 69 ab 83 bf
       0.12282900849101007 -0.009604288142271319
0005a0 57 a6 f7 f6 ef 27 93 3f da 7a 0b 0b 68 86 ae 3f
       0.018707036446278327 0.05961918959450481
0005b0 fb 58 30 72 30 31 9a 3f ed 10 c0 9e f2 f8 b1 bf
       0.02557826706841924 -0.07020489097346046
0005c0 1b 49 e9 cb e5 84 a1 3f bc 3d 77 b2 1d ad a0 3f
       0.03421705354834811 0.032570770297407375
0005d0 d3 44 2b 7a ee 58 9b 3f 36 b9 cc 83 46 aa b7 3f
       0.026706434446911963 0.09244194715276852
0005e0 f1 0d 3e 97 20 12 ae 3f fa a7 66 60 7c 08 87 bf
       0.0587320503828116 -0.011246654216694896
0005f0 43 0c d7 72 e0 5a af 3f 3a f3 2f 66 48 3f 8a 3f
       0.061240209597166494 0.012816014879712168
000600 ad 53 bf af d5 6f 96 3f 8f 6c 97 60 f7 19 af 3f
       0.021910990573662015 0.060744982281641595
000610 b9 db f2 ea 97 c7 aa 3f bd e7 99 00 e8 c1 90 3f
       0.052304027014023764 0.016364693676656595
000620 18 4d 1d d0 13 c6 ba 3f 0f 9e 75 32 17 a3 9e 3f
       0.10458492117804885 0.029919016318130483
000630 86 ff db c9 91 40 5f bf f9 88 79 e6 06 50 79 3f
       -0.001907484408945921 0.006179835275903261
000640 07 6b 3d 51 7e 36 8d 3f 6c d1 ac be 97 82 a7 bf
       0.014264094213719781 -0.04591821863724274
000650 3e ff 37 50 9d 4b 53 3f ca 46 c8 df 79 88 ad 3f
       0.0011776958716609022 0.057681854788950895
000660 7c 6d 15 d8 a2 4c b6 3f 17 dd 76 2a 4a 62 b7 3f
       0.087106874232111 0.09134353195883126
000670 b9 0c fd b6 e8 48 b1 3f 2f bf 2d 77 41 00 94 3f
       0.0675187536954124 0.01953222551259087
000680 94 74 23 3e a6 01 b1 3f 12 0a 80 55 dd 38 9f 3f
       0.0664314176278416 0.030490358680262793
000690 b2 af 9d 38 90 c1 97 3f 83 7b e4 09 8d 4c a0 3f
       0.023199323134960266 0.03183403726347136
0006a0 92 49 09 e8 84 d5 88 3f ea cd d3 5c c5 42 77 bf
       0.012126005488572376 -0.005678912112887494
0006b0 ac be f5 73 29 26 1a bf 84 c7 38 10 14 64 76 bf
       -9.975078591195158e-05 -0.005466535923504771
0006c0 17 69 a7 3a c6 9b b6 3f 75 66 b4 66 1a 39 b4 3f
       0.08831442768078933 0.07899632461012536
0006d0 a5 b7 74 e2 1e 03 bb bf 0c b0 71 9f 1c 5a a1 3f
       -0.10551636723241005 0.0338906235345747
0006e0 8b 41 9f 5a 20 81 82 bf 8b f3 5b e9 75 aa 72 bf
       -0.00903535152966197 -0.004557095138577059
0006f0 f5 af f0 ad 6f 94 30 bf c7 46 23 bd 89 34 a0 3f
       -0.00025298811482588 0.03165083345232982
000700 e8 08 55 4f e0 1f 97 3f 80 e9 9a 01 74 d1 68 bf
       0.022582535593081682 -0.0030295625445805885
000710 75 24 05 e2 d8 e1 b2 bf f1 a4 79 da 76 30 97 3f
       -0.07375865476673645 0.022645814022699665
000720 04 9d 84 2d e0 7c 9b 3f d7 fc cd 98 34 a6 ae 3f
       0.026843550470542446 0.05986179700175292
000730 4e a0 c7 6a 94 63 b0 3f 80 82 f7 b0 0e 4b 8b 3f
       0.06401946646622145 0.013326754356002057
000740 88 3f 94 e4 c2 78 9d bf 7e 95 03 c2 19 d8 b9 3f
       -0.028780980302201026 0.10095368372602384
000750 bb 41 56 36 7c 28 82 bf 95 d7 fd b8 d4 75 a1 3f
       -0.008866281898719621 0.03410210378835569
000760 d3 b8 fa 38 38 b4 b6 3f d9 7a 17 6c 3c 5e a6 3f
       0.08868743315790377 0.04368771380881293
000770 96 fc 3a 18 f2 f1 b2 3f 5e 62 65 78 1a ab 79 bf
       0.07400429812968165 -0.006266692542646083
000780 3a 81 0c cf 6f 11 79 bf a7 9d ad 40 0b 22 ae bf
       -0.006120144608559303 -0.0588534847691407
000790 be 4b 93 d2 85 b8 a9 3f c3 4e ee 61 ed 6f 99 bf
       0.05023592181682755 -0.024841031172015315
0007a0 32 cc 4b 2f a5 03 95 bf f8 58 89 62 98 49 a7 bf
       -0.02052171803638831 -0.045483362224944146
0007b0 59 28 3f a4 56 ca bd 3f fd 2a 58 fa d6 76 b5 3f
       0.11636868963174275 0.0838446007912061
0007c0 df ea 7d 3b 75 37 b3 bf 6b 16 bf 5c 12 68 83 3f
       -0.07506497099340546 0.009475844817539788
0007d0 a3 d7 f7 f5 22 0c 8c 3f d0 e2 18 9f e2 63 64 3f
       0.013695023661948918 0.0024890352440503985
0007e0 a2 1f ea bd 16 bc 82 bf d0 a4 f2 95 ae 8d 8e bf
       -0.009147813482982606 -0.014918674422306571
0007f0 dd 4b 08 bf c4 57 a6 bf 6c fc 42 ee 79 7a af bf
       -0.043638370818505946 -0.06148129495112972

weight_1 f8 [64, 128]
000000 d0 2b 87 db fa b6 a8 bf 15 3b 34 dc fd e6 3b 3f
       -0.04827102594170862 0.0004257554794130797
000010 97 c1 7a d8 e9 a2 a1 3f cf 2b c1 d9 0f 50 8d bf
       0.03444605605671141 -0.014312862236826178
000020 37 8f a8 87 89 e6 90 bf e7 ee e7 1b eb 82 9c 3f
       -0.016504429726537508 0.027843164041754156
000030 41 07 a8 09 ba 06 bb bf 82 b2 24 18 d4 6d c0 bf
       -0.1055713914465999 -0.12835169962763265
000040 5b d6 d9 0a ed 63 ca bf fc c3 63 6c 42 07 84 3f
       -0.2061744978888552 0.009779471333304805
000050 f5 79 e0 36 53 c4 c0 3f db c3 06 8b 5c 6b 8a 3f
       0.1309913652375624 0.012900088303327386
000060 6c 93 26 76 45 41 7e bf b4 8c 0a bb 76 b3 c3 3f
       -0.007386466344915781 0.15391430027839237
000070 8f 02 2b f1 5a 6f 9c bf 93 db 32 cd 6e 12 b6 bf
       -0.027768536538817442 -0.08621876249058706
000080 4f e1 02 13 21 f4 c7 bf 53 7b e0 60 69 5d b9 bf
       -0.18713773182185853 -0.09908159842642066
000090 30 7f c9 07 52 1c b7 3f 29 81 b2 ae 4b 4b b7 3f
       0.09027588548769638 0.09099267020292658
0000a0 fd 2b c8 dd 34 4d 99 3f 95 90 55 d1 d0 55 85 3f
       0.02470858195924207 0.010417586696981377
0000b0 79 fe 9a 7c 3e 3b c4 3f 0d c5 e6 76 20 da 92 bf
       0.15805798610925928 -0.018410212762039403
0000c0 2d 9e 76 0f 4e 7f b9 bf 7d a6 23 0a c4 d3 88 3f
       -0.09959876897357196 0.012122661170411714
0000d0 81 9d ee 1a 4a 5c ce 3f 2c ed 2d 54 2e b6 a2 3f
       0.23719145121615884 0.0365461805112893
0000e0 99 c0 d8 af ce c6 b9 3f 5d b4 34 05 f9 c3 7b 3f
       0.10068980973369647 0.006778691039739018
0000f0 be 1f 8a c9 ab 8e 95 3f f9 0d 6e d8 83 5a bf bf
       0.0210520593414285 -0.12247489961560366
000100 b8 e2 58 6e 6f cb b7 bf c6 cf f3 93 61 ad 9a bf
       -0.09294792598746937 -0.026052021651551426
000110 6e c4 e0 67 df 44 cd 3f 7b a6 4b 92 f4 59 c0 bf
       0.22866432735603176 -0.12774521964393046
000120 93 42 68 72 21 e0 b1 3f 31 50 6e 4b 2b 35 ae bf
       0.06982621234079493 -0.058999398191332715
000130 65 d0 2b 16 19 d7 c1 bf 61 68 29 57 be 27 ba 3f
       -0.13937676985335937 0.10216893794987093
000140 1a a5 dd 04 c7 15 b8 3f 10 94 9d 8d 50 46 c4 3f
       0.09408229702753027 0.15839583315678896
000150 d9 31 70 13 c4 c9 b6 bf c5 56 ef 39 27 43 be bf
       -0.08901620363776121 -0.11821217693735793
000160 47 39 da db eb 8a c8 3f 12 8a c9 71 ca f9 b6 3f
       0.19173954234106302 0.08974900510796882
000170 d8 0d 9a d2 ab 20 a9 bf 9b 10 3d 26 79 e6 67 3f
       -0.04907738633940156 0.002917515392171733
000180 cb ec 6b d8 d2 91 a9 3f 47 40 56 00 cd 62 b7 bf
       0.049940670889520776 -0.09135133035874886
000190 1c 94 2d ee 82 b5 ae 3f 74 38 30 e8 44 d5 d2 3f
       0.05997857243963997 0.29426691698689145
0001a0 2a 17 04 6c 1a 34 ba bf d6 20 eb ef 30 9a a3 3f
       -0.10235753190144395 0.03828576019947298
0001b0 56 97 d7 ea 0f 40 b2 bf a4 0a bf d6 87 27 c0 bf
       -0.07129001124812126 -0.12620637879998242
0001c0 c3 2c f5 e2 4f b5 b5 3f 1b 53 81 3c c2 75 aa bf
       0.08479785242996045 -0.051679677854428806
0001d0 e8 c7 26 50 41 e6 b5 bf 5f de 08 57 28 13 c1 3f
       -0.0855446644480079 0.13339714288462098
0001e0 73 f3 13 db 7d 2b 6f 3f 6e af 28 cf fe b9 b4 bf
       0.0038049181099481465 -0.08096306378928173
0001f0 31 cc 64 6e ba 75 b6 bf 8b 29 2a ce 17 de 9c bf
       -0.08773389048728643 -0.02819096752004095
000200 f9 02 64 0f 0b bd ba 3f ca 83 dd 51 be f9 b7 3f
       0.10444707036732472 0.0936545324198185
000210 66 8f 2a ed bb 30 a1 3f 0b 3c 16 4f 5a 31 c0 3f
       0.03357493658157189 0.12650612699187067
000220 92 86 24 24 7c ef a2 bf 7b 17 06 d1 0f d2 a9 3f
       -0.03698337498850636 0.05043076921997077
000230 36 b8 0e ad 84 f0 b2 bf 2d 67 43 68 c3 43 cc bf
       -0.07398251748119908 -0.22081797209721668
000240 dc b9 3a 95 1f 50 b0 3f 19 89 40 36 8f 43 b2 bf
       0.06372258561416494 -0.07134337496293987
000250 4f 59 57 39 04 9a be 3f db 61 17 54 6f b6 9e bf
       0.11953760528499412 -0.02999280882599629
000260 1e 00 cc 60 8c 31 9b bf 6b cd 3e dd dc 96 b0 bf
       -0.026556199462902545 -0.0648019828939163
000270 c9 28 cc 93 97 62 ce bf 6d 65 4f 62 f7 c0 a0 bf
       -0.23738379208254504 -0.03272221636843651
000280 7b 21 4b 9f 63 97 c8 bf de aa c7 87 49 e4 bf 3f
       -0.1921200301933473 0.12457713665905198
000290 06 96 77 9c 27 8b a8 bf 44 60 a7 11 2b 4c c1 3f
       -0.047936666345588505 0.1351369701576478
0002a0 69 cd 28 c0 98 b7 b1 3f 41 9b fd 7c 28 f0 8d 3f
       0.06920771304503649 0.01461822158280557
0002b0 ab 21 8f 14 d2 21 b1 bf ae ea 32 69 a1 1f b3 3f
       -0.06692231180125556 0.0747013933022724
0002c0 3a 8b fc a2 14 12 b5 bf d0 3b 7b b5 d6 67 a2 bf
       -0.08230713824427208 -0.03594847646092314
0002d0 fd 60 53 a8 42 ad af 3f 9b 29 ae 05 6f 8e c3 3f
       0.06186874680287422 0.15278423096999635
0002e0 9f 53 8f e8 de ad 99 bf bc 88 88 6f 96 61 a2 bf
       -0.025077326721504197 -0.035900784602078656
0002f0 b8 d4 66 8d 15 1b bc 3f 29 17 47 7e 0a 76 a2 bf
       0.10978827192487273 -0.03605683127857013
000300 9a 00 36 dc 64 eb b5 3f 2e 3d 58 a6 d0 96 c2 3f
       0.0856230771660215 0.14522750971125603
000310 af b5 89 f1 23 c6 c0 bf 49 3e 57 7f e3 e2 cc bf
       -0.131046765268747 -0.22567409246265616
000320 ab 28 5e 8c 9f 4a ba 3f 2e 42 d9 ec 06 dd b7 3f
       0.10270116021107138 0.09321635515630852
000330 67 ac 02 c9 36 e5 b9 bf 3e ae c5 33 7a 85 c0 bf
       -0.10115377814752123 -0.12907340553225483
000340 32 79 3e 6f bf bd b2 3f 38 a8 a7 2a 3b 7a 75 bf
       0.07320782152098529 -0.005243521804439814
000350 9d 12 26 7c fe b4 b7 3f 44 6f 3f 04 cd ad b7 3f
       0.09260550051664969 0.09249574044900749
000360 17 f3 4d 11 5e c5 9a 3f 27 59 b5 61 bd 5a b6 3f
       0.026143522077734262 0.08732207904299526
000370 53 79 b6 23 25 78 c4 bf 14 75 dd f1 81 eb 9c bf
       -0.15991653674877657 -0.02824214018561573
000380 04 3c 03 27 22 86 98 bf f6 c6 7b 68 92 da a5 3f
       -0.023949178343908542 0.04268319631036192
000390 c2 3a 94 53 97 bc 63 bf 9b e3 73 2e ec a9 b2 3f
       -0.0024092631907771398 0.07290531286333961
0003a0 78 78 bf 7d 44 17 b4 3f 91 e0 e6 38 55 c3 c0 3f
       0.07848003454225416 0.1309610870209821
0003b0 4e 54 38 8c 07 4f c7 bf 97 b5 85 08 c8 81 a7 3f
       -0.1820992884319445 0.04591202835113533
0003c0 c7 3b 34 eb 44 3f c7 bf cd 08 0b 85 83 7d 94 bf
       -0.18161832317897916 -0.020010046954447348
0003d0 65 c4 5d 79 8f 74 c3 bf 2c 15 b9 8a 2c 77 c1 bf
       -0.151994642506483 -0.13644940160353636
0003e0 9b af ac 23 3b 22 aa 3f 8e 4b 12 8e b1 72 8e bf
       0.05104241190414812 -0.014867198131730121
0003f0 ce 9b 65 71 45 2a ae 3f 55 40 1f 5a b7 de b2 3f
       0.058916254131694865 0.07371087980504971
000400 a6 a3 fb f2 e1 54 62 bf 80 d9 f6 b3 ec 5c bc 3f
       -0.0022377408093814 0.11079291719111062
000410 e5 05 66 2d 6c dd c4 3f 94 06 13 b1 84 20 b0 bf
       0.16300728050923322 -0.06299619029143805
000420 fd 8c d1 1c ec 90 c9 3f 59 c0 b6 cf e5 b6 a5 3f
       0.1997351780620206 0.042411023717591596
000430 25 dd c2 25 df 61 ca 3f 5b d5 92 15 47 ba b4 3f
       0.20611180633361773 0.08096737171839179
000440 09 3d 47 c8 e3 be 52 bf db 26 32 b4 15 23 91 3f
       -0.0011441444813618548 0.016735400317464105
000450 b4 28 05 f1 51 ae ae bf 31 0e c5 af d1 58 ae bf
       -0.059923706694989504 -0.059271385866420785
000460 1f f1 08 fe 24 d1 be 3f f5 87 e7 05 d1 f5 b6 3f
       0.1203787918283905 0.08968836206580007
000470 1f ec 6d 12 9c ba d0 bf a3 c4 74 9b 02 11 a9 3f
       -0.26138974952454136 0.0489579024091509
000480 e0 44 72 44 d9 18 cc 3f 8c 22 1b cd da f9 be bf
       0.21950832216365423 -0.12099998004408458
000490 73 32 ed a1 26 6b a1 bf a1 b6 96 6c e7 8d b2 3f
       -0.034020621553826035 0.07247778321353816
0004a0 94 14 c9 45 04 49 ac bf 99 3e 4c 2a 5e e3 7e 3f
       -0.05524457313416878 0.007541053612626713
0004b0 82 5f 4f e5 65 01 b8 3f 34 6a c9 1a ac e0 ba 3f
       0.0937713322485916 0.10499072698568385
0004c0 d6 ed d2 16 df db c4 bf 28 de df 3d 0e 7c 92 3f
       -0.16295994390917085 0.018051359678763174
0004d0 64 64 e5 3e 44 52 ab bf f7 96 5d bc 6a 5b a6 3f
       -0.05336201923155029 0.04366620587715702
0004e0 84 97 69 af c2 49 8b 3f 89 8d 8f fc 0a ed c0 bf
       0.01332428071800585 -0.13223397571628606
0004f0 8c 6f b8 65 d5 7a b6 3f c4 f6 9b 84 74 f9 9f bf
       0.08781179173860049 -0.031225033372712444
000500 2f 1b 76 79 46 3a 60 bf 97 1b 10 1f 00 e0 b2 3f
       -0.0019809128240838784 0.07373047598239989
000510 0a 9e be 05 7d f3 cb 3f fa c2 57 9b 83 96 af 3f
       0.2183681753206062 0.06169520636820454
000520 14 d2 f9 02 72 f2 a1 bf 3b 01 7d 3d 10 1c 87 bf
       -0.035052836287750605 -0.01128399551055336
000530 18 0e a2 40 e9 ca a7 bf d2 32 d6 dd e4 d3 c8 bf
       -0.046469964160703536 -0.1939664920031619
000540 59 a2 f0 32 0a 40 d1 3f 9b 75 58 55 31 7d 76 3f
       0.26953368162734176 0.005490486820716535
000550 d1 89 d6 3e 1c e4 c8 bf b3 67 9b 5d e0 68 b1 bf
       -0.1944613749338502 -0.06800653729751964
000560 ca d3 e8 71 f1 dd a6 3f 36 c7 db bc 26 b1 c1 bf
       0.04466204181191065 -0.1382187292252241
000570 c7 21 79 1b f6 c1 a6 bf 16 46 3d ae 5d 27 c0 3f
       -0.04444855771413674 0.12620135314732356
000580 b0 ce 58 0a 84 7f b0 3f 9a 21 35 01 e3 83 a6 bf
       0.06444573643312412 -0.04397496595135238
000590 6b 8a 74 71 18 fa c3 3f 3d a3 70 5a 6e 49 b0 bf
       0.15606980838591097 -0.06362046916968907
0005a0 8a e7 51 8e 8b 64 be 3f e4 80 4d 99 89 65 b6 bf
       0.11872169708831684 -0.08748683922522421
0005b0 d1 a5 e8 d5 df 3e aa 3f 6f 46 cd ed 7c b3 cd bf
       0.05126094328108944 -0.23204003917139768
0005c0 7d 6f c3 d6 5d 81 ba bf bc 14 6d 7e 9d f2 c2 3f
       -0.1035364770245319 0.14802902863644885
0005d0 0a 37 b0 3a 64 29 c0 bf 19 ff f5 88 8e 7c 90 3f
       -0.12626316896096795 0.016100146398002033
0005e0 95 c5 a0 56 7f c3 ce 3f cb 6a 8e d9 d6 ca c0 3f
       0.24034110765346087 0.13119016287676852
0005f0 c9 cd db 4a 51 aa c5 bf 79 a6 a9 64 01 93 a1 3f
       -0.16926017909245974 0.03432468751709634
000600 23 a6 6c 87 86 10 bd 3f 93 20 61 c5 91 98 cb 3f
       0.11353340917835246 0.2155935491339319
000610 c3 0a 98 71 78 bf af bf ec 8a 4d 20 67 98 83 3f
       -0.062007678858227354 0.009568029092127138
000620 3e e3 27 1d 0a 7d c2 bf 0c 11 cf 9c 4e 26 70 3f
       -0.14444090293525308 0.003942782478535866
000630 7e e1 34 ee 53 15 65 bf 0f 0d a6 0f 90 1d 79 3f
       -0.0025736464755505275 0.006131708849696395
000640 ea 9f 3e ec ee 77 c5 3f d9 26 d9 10 9b f9 c2 3f
       0.1677225736177655 0.1482423622385827
000650 83 60 c8 b6 38 04 ad 3f 57 06 1a cd 4a 73 a1 3f
       0.05667283278688819 0.03408273461992611
000660 af 73 f2 7e ec 08 c6 3f 02 53 c0 bb bf 6b a7 bf
       0.1721473331316736 -0.045743934315543924
000670 83 01 21 ea 80 48 c5 3f 9f d3 73 4a 1a 39 b6 bf
       0.16627513343884112 -0.08680881803213801
000680 00 76 c9 96 5e b5 b0 3f 2e 11 c1 62 43 50 c6 3f
       0.06526747876474559 0.17432443925839308
000690 f0 07 a2 57 ff 03 b6 bf bf c6 00 e9 32 e2 cd bf
       -0.08599849595523756 -0.23346554162121966
0006a0 f1 57 b7 30 51 9e a8 3f 2a 10 02 cd 25 04 d2 bf
       0.04808286399536133 -0.2815031530410602
0006b0 37 f3 ae 94 21 4d ab 3f 11 8f e9 2e cc 39 b9 bf
       0.05332283916457075 -0.09853817124672683
0006c0 8d 5d ce e2 c6 97 b5 3f e9 6a df c7 c6 d8 d0 bf
       0.08434718167551676 -0.263230986774643
0006d0 23 b7 56 58 26 a1 bf 3f fa ea 81 22 03 84 a2 bf
       0.12355270058352778 -0.036163423502292916
0006e0 c8 e4 30 d4 61 60 ba 3f 69 d0 69 84 0d 1c a1 3f
       0.10303317480510821 0.033417150892007204
0006f0 bf 14 01 56 93 ba ba bf 53 86 2b 1a dd 74 d0 bf
       -0.10440941667282554 -0.25713279300371034
000700 78 c5 e2 20 a3 e4 b7 3f b0 72 40 a6 ea 6f b2 3f
       0.09333247712017634 0.0720202117813169
000710 58 5c c3 8a 04 67 c3 bf 18 8b 84 11 12 16 c2 3f
       -0.15158135200064993 0.14129854064329872
000720 72 13 1d 2b 6f 78 b2 3f f0 8f a1 96 d8 19 bc 3f
       0.07215018084123218 0.10976937940137055
000730 e5 4d 8c d6 31 38 a7 3f 13 d2 66 aa 13 9b c5 3f
       0.045350606384228866 0.1687950689353249
000740 3d 22 e5 7f 36 1d d2 3f d7 96 e4 4e c0 14 c4 3f
       0.28303301324607216 0.15688327648347553
000750 59 00 0e 6b f9 a5 a1 3f 46 42 53 73 51 67 cd 3f
       0.0344694083387373 0.22971552020182368
000760 d8 3b 0d ef 74 9a 91 3f 5b 11 55 c7 a2 99 ab bf
       0.017190768328244704 -0.053906523544841455
000770 e2 b8 41 1c b1 c6 c3 bf 48 c6 07 48 3e 7c a5 3f
       -0.15450109367106452 0.04196352605130166
000780 a6 5b b1 bd 11 7b 7b 3f 0b 85 36 f6 4f f8 c9 bf
       0.006709164906246656 -0.20289039156072194
000790 60 ad 55 ec b6 2b c2 3f a3 d6 12 96 31 83 62 bf
       0.14195906200198305 -0.002259823654265984
0007a0 f2 95 7e b1 cf 8e d5 3f 93 bf 80 75 ef 23 b5 3f
       0.3368415101379859 0.08257958048557006
0007b0 f9 68 3e 58 01 3d 9b bf 75 e2 26 8f 80 46 b9 3f
       -0.02659990407082888 0.09873202795905363
0007c0 79 16 2d fd e6 a6 a9 bf c4 03 9c f2 2a 16 b8 3f
       -0.05010148849991664 0.09408825324136588
0007d0 41 3f 09 bd 63 47 d0 3f 5d b0 6d c6 01 12 6b bf
       0.25435727558668836 -0.0033044848127499597
0007e0 4e 3d bc 93 f9 8d c0 3f 77 3b d7 c8 32 30 a3 bf
       0.12933273042333798 -0.03747709943456006
0007f0 9c 58 c9 2c 23 3c af bf d1 af 48 61 b9 09 d2 bf
       -0.06100568696699435 -0.2818435144461065

weight_2 f8 [10, 64]
000000 68 fe 74 80 f2 ce 93 bf 66 75 e9 af f0 e5 d3 bf
       -0.019344128694909563 -0.3109094350710023
000010 05 fd 95 7b 2f 45 c2 bf e9 9b bc 32 4e 2f c1 3f
       -0.14273637327639946 0.13425614812260214
000020 33 83 d2 69 8d 1e e6 3f 60 e1 40 46 64 5b ae bf
       0.6912295405237273 -0.059291013313159224
000030 d4 94 63 b1 b7 2d e0 3f 40 1a 48 77 84 7d b6 bf
       0.5055807556751923 -0.08785274421834632
000040 3a 94 f2 d0 b4 db c6 bf f3 9b 23 4f b0 be 7e 3f
       -0.17857990458029055 0.007506073672835167
000050 f5 a6 14 c8 28 42 97 3f 73 a2 e3 75 f2 59 bc 3f
       0.022713315212206948 0.11074748399881588
000060 c5 85 9f f4 8c 28 cb bf 93 77 96 b0 10 3b a6 bf
       -0.21217500633706102 -0.043419381672023104
000070 e3 69 1a 64 51 96 e7 3f 9f e2 36 5e 74 64 d2 bf
       0.7370993571415138 -0.28738125992416913
000080 49 8e 90 01 1c 37 cc bf ca db 58 44 72 0f d2 bf
       -0.22043180538558918 -0.2821927707149682
000090 1f cf a9 b6 3f 53 8c bf 4e d6 5d 34 8c 10 be 3f
       -0.013830659639303243 0.1174399974678064
0000a0 0a b6 05 9c a9 87 dd bf a8 7b e8 0c bf 72 bc bf
       -0.46140518414071663 -0.11112588944568691
0000b0 3e 33 91 88 a4 6e ce bf f0 95 a5 fd b2 a0 d7 3f
       -0.23775154751128896 0.3691832997340887
0000c0 dc 3c fc 14 e4 98 be bf 42 45 b1 89 20 87 d2 3f
       -0.11952043068253054 0.28949750372438043
0000d0 dc 3f 1c 9c ab ae ca bf 92 59 4e ea 9a 1f 86 3f
       -0.20845551607680946 0.010802469516232791
0000e0 3c 6d 0e 0b 1b 80 ac bf 45 c2 67 4d fb 5a bf 3f
       -0.05566486844983351 0.12248201980379132
0000f0 8f 66 4c c9 95 7b d0 3f 6c 06 83 43 da dd a7 3f
       0.25754303606081747 0.04661447595709664
000100 1d c3 df 35 90 c6 aa bf db 57 51 76 2b 21 bf bf
       -0.052296167923378635 -0.12159988058678499
000110 72 5d 8a 15 c5 b0 ce bf 88 f2 13 65 27 76 b4 bf
       -0.23976958801061304 -0.07992788522455829
000120 71 19 f9 bb ba 70 d7 bf b9 ac b6 69 9a 89 7f bf
       -0.3662554584192526 -0.007699587989388573
000130 b6 fd 67 fe 5b 34 a5 bf 0c d4 18 6d 61 ef d5 bf
       -0.04141509514374368 -0.34273563055040834
000140 6b 48 54 07 16 0e d9 3f 6d 0f fe aa 1b dc dc bf
       0.3914847442221176 -0.45093433092573926
000150 83 3f 64 fa 76 41 d4 3f 76 f2 b6 d5 bb 30 cc bf
       0.3164956517439281 -0.22023723540577905
000160 f5 4e e0 56 29 21 e8 3f 9f b3 e4 41 39 02 ca bf
       0.7540480324555278 -0.20319286076974394
000170 e4 6c 91 0e aa f0 c4 3f 5b 39 79 fb 4a 67 92 bf
       0.16359449111300883 -0.017972156141973766
000180 6d 14 71 35 40 fe c7 3f 91 5c 69 7d a7 65 d1 bf
       0.1874466191240204 -0.271829483482585
000190 7b ee c8 d0 e1 85 d8 bf 1d d1 bd fe 39 d1 cb 3f
       -0.38317151440762814 0.2173225873808712
0001a0 1b c6 f0 9f 6e cf d1 3f 3f 1d 55 20 cc d1 b7 bf
       0.2782856523436707 -0.09304500378958823
0001b0 74 69 b9 a9 33 dc bc bf d2 d7 62 57 ed 9d 9a 3f
       -0.11273501294764349 0.025993069132446874
0001c0 cd 02 27 eb d8 51 c8 bf 68 77 c4 c1 36 40 a1 bf
       -0.18999778253603097 -0.03369303813290864
0001d0 e4 0b bf 59 9c 7e d9 3f 52 5f e8 ce 54 03 ca 3f
       0.3983527065685719 0.20322666266360528
0001e0 d6 6e 9d ba 36 7c 9a bf 64 b6 cc c1 3b 69 a0 3f
       -0.025864462986063007 0.03205286732405169
0001f0 c2 5a d8 f4 15 b9 c6 bf cb 28 0c c0 4b 14 a7 3f
       -0.17752336936310625 0.0450767204220753
000200 ed a1 04 40 58 1d cb 3f 11 44 4e d3 66 a9 c2 3f
       0.21183302999385437 0.14579472844755562
000210 1b b5 b8 30 5f d3 b5 3f b0 b7 65 92 c7 d5 dc bf
       0.0852565282773025 -0.4505480699216333
000220 17 1c 13 15 d8 35 d9 bf 18 46 7e b3 0e 04 b2 3f
       -0.3939113813216308 0.07037441141280742
000230 cb bf d7 a3 0d 8f d5 3f c1 b1 c6 74 d4 78 af bf
       0.33685627937574897 -0.06146873403062925
000240 7e 8f f9 8f b6 a1 d5 3f f5 8d 06 05 fc 35 bf 3f
       0.3379951864246705 0.12191748736091042
000250 7e c1 44 7d 59 da b3 3f 0d 1d f7 a0 5a 9c b0 3f
       0.07755049999537353 0.06488577298943117
000260 ab 28 c1 6e 2b a1 cd 3f 11 02 bc f5 27 fa c5 3f
       0.2314810076516712 0.17169665812254256
000270 75 1d d6 35 f9 a0 bf bf 0f c5 ed 52 6f 7e c3 3f
       -0.1235500103413097 0.15229598569161637
000280 79 3d 88 b2 b2 c2 c0 3f ff 0a 25 12 e7 36 da bf
       0.13094171254531853 -0.4096009900278403
000290 cf 96 50 c4 8d 48 88 3f 02 01 44 23 b7 b5 e2 3f
       0.011857135346939355 0.5846820534498252
0002a0 67 03 10 5e e7 82 cf 3f ae 05 99 5c c8 bd db 3f
       0.24618236630342524 0.43345841448543865
0002b0 60 8f 6d 84 18 ad d0 bf c8 e4 f9 ba a1 9e c2 3f
       -0.26056492741030546 0.14546605710692107
0002c0 28 76 ba fd e9 bd b6 bf 16 a3 83 df f8 85 cf bf
       -0.0888353580907838 -0.24627600587634707
0002d0 19 55 2d 08 4b f2 d3 bf c7 8f 54 9d 87 20 dc bf
       -0.31166339682143157 -0.43948545803345634
0002e0 a2 25 4d 11 69 a5 ea 3f 20 8e 05 85 5a a2 7f bf
       0.8326917016903972 -0.007723191826105175
0002f0 2e 5a c9 e3 42 38 ca bf dd 2e e4 9c 61 77 d4 bf
       -0.2048419582594802 -0.3197864563123696
000300 db da 90 b6 a8 03 b3 3f da 67 6a 1f e8 41 d7 3f
       0.07427458245443168 0.36339762752470295
000310 8e 0c d0 fd 99 70 7b 3f 8b 66 fd 50 df fe da 3f
       0.006699182061313936 0.4218061724583115
000320 55 26 a5 05 33 02 ab bf 93 9b 5f 22 a1 7c af 3f
       -0.052751154364682286 0.061497722097377715
000330 4b d2 78 3c b4 d5 c8 bf 59 02 0a 57 c9 8f b5 bf
       -0.19402172997219433 -0.08422525763490664
000340 8c 9e 5c 3e ff c0 c1 bf f8 ce cb d2 39 06 c5 3f
       -0.13870230240830883 0.16425249855785018
000350 d8 c1 4f f4 59 a3 c7 bf dd 8f 39 bf 5e 06 d9 bf
       -0.18467258862757663 -0.3910138003759565
000360 a7 05 1f 94 bd b9 a0 3f 52 f3 2d 95 44 6a bb 3f
       0.03266708787078736 0.10709026949002734
000370 0e 18 f2 17 12 19 d1 3f 7f f8 c5 6f c1 f0 c0 3f
       0.26715519274182575 0.13234727819139278
000380 4d d9 38 1f b9 56 c6 bf d9 4c 68 5b d5 e7 bc bf
       -0.17452157997622422 -0.1129124973452237
000390 6e 85 08 33 e3 64 92 3f c9 2f 7a 2b 5c 40 d0 bf
       0.01796298026068171 -0.25392822500066053
0003a0 9d 93 53 f9 f3 08 c9 bf 53 45 8f b7 c4 65 b4 bf
       -0.19558572458404636 -0.0796778629440003
0003b0 4d 01 16 c5 f5 6b c7 3f 49 bd 39 27 96 4c ac 3f
       0.18298217891061555 0.05527180889918754
0003c0 47 d7 ba 7c bb e9 8b bf 60 e1 7c f2 7b 1f d3 bf
       -0.013629402870133268 -0.2987966411633547
0003d0 8d eb 6e da d0 d6 cb bf 61 fe 98 ef 9d e7 db bf
       -0.21749315896689972 -0.436011775953352
0003e0 83 9a 70 49 72 10 b4 3f 68 a0 0c 19 ee 1c d2 3f
       0.07837595265355372 0.2830157513258258
0003f0 ba 68 41 51 46 64 72 3f 71 98 46 ca 17 79 d7 3f
       0.004490160634384727 0.36676592591755425
000400 33 23 53 ab 91 ec c5 bf c6 5a a1 18 db ff c2 bf
       -0.17128201356379122 -0.1484331007256598
000410 1d 13 9d f3 67 76 d7 3f ba b3 39 16 d8 0f e6 3f
       0.3666019324339674 0.6894340929117029
000420 81 23 a5 91 7c f4 6f bf 74 9f ec 5a d6 2f 9d 3f
       -0.003900759981807445 0.02850279741247115
000430 4e da 30 05 ac ee dc bf b5 e7 e1 55 ea 50 94 3f
       -0.4520673800174436 0.019839917651985412
000440 0c d7 1b 6d 8a 2b df 3f 40 25 b4 36 11 79 b5 bf
       0.4870325150981081 -0.08387858949221982
000450 b0 e6 f9 fe 69 24 cb 3f ef ca 5e 47 8f 73 c3 bf
       0.2120487685204373 -0.1519641016471591
000460 62 f3 53 4d 6f 62 c1 3f 09 84 aa 6c d7 1f ad bf
       0.13581649089601472 -0.05688355638017845
000470 93 80 1c ff ea a3 d0 bf 1b d6 3a 18 0b d5 d9 3f
       -0.26000475800720685 0.4036281334514073
000480 37 cc bb d8 5b 1e b8 3f 36 9e c5 a7 01 15 b9 bf
       0.09421323815676962 -0.0979767832374073
000490 e8 4d af bc 64 7e cd 3f cf 2d 49 38 40 38 a6 bf
       0.2304197236359038 -0.043397909994918764
0004a0 f3 51 52 45 09 95 e4 bf d2 c7 d6 7a 7a ee d5 3f
       -0.6431928972183968 0.3426805686568716
0004b0 59 b0 4d 11 76 f0 d3 bf d4 bb ed be 58 47 a5 bf
       -0.31155158700744817 -0.041559956843108786
0004c0 93 aa b5 1e 70 57 c9 3f 66 36 9f 51 48 ff bc bf
       0.1979808950375924 -0.11327030174944638
0004d0 0c f4 a8 38 69 db c8 bf df 69 d3 52 c3 8c cb 3f
       -0.1941958929691342 0.21523324531774699
0004e0 94 b6 47 da e0 6b b3 bf a9 f1 c8 db e9 04 cc bf
       -0.07586484269242028 -0.21889994842230223
0004f0 07 96 b2 a0 ff 6d c2 bf 4a 48 b7 9f be 46 c5 bf
       -0.14398188921511254 -0.16622145460729804
000500 f5 0a 0f 0d b9 1b a5 bf f8 59 8c 5a 93 95 c7 3f
       -0.04122713360222533 0.1842521850710026
000510 4b f9 0f 50 ae 19 a8 3f 07 a1 d2 1f 9b f9 bd 3f
       0.0470709297878665 0.11708993460581861
000520 d6 12 29 25 e8 97 d3 bf 2e 1a 92 a0 81 56 c2 bf
       -0.30614665631246163 -0.1432649644886665
000530 b4 87 da 2b 76 03 c7 bf 06 e9 cb be ce 25 c1 3f
       -0.17979313985148127 0.13396629635082763
000540 c6 60 29 41 d3 8b c4 3f 30 14 96 60 5f d5 e8 bf
       0.16051712686272007 -0.776046455998431
000550 77 5e 4b 76 43 49 e5 bf bd 07 3f 75 32 d9 c6 bf
       -0.6651933012426089 -0.17850332951462447
000560 c4 eb 5e 13 ab 22 e0 3f 47 3c d6 3f f1 0b e8 bf
       0.5042319658599514 -0.7514578100980395
000570 2b 5f 43 6b 9e 83 d1 3f 48 7e fb 6c 90 eb 7c 3f
       0.27365837550086053 0.00706058899206103
000580 02 50 1e 33 e9 56 de bf 86 ed 63 9b 09 27 d6 bf
       -0.4740546225741583 -0.3461326615794963
000590 66 c3 c3 24 b7 e3 d9 3f 57 61 17 72 08 da e0 3f
       0.4045236453085209 0.5266153553339262
0005a0 70 61 64 4c 82 07 e0 3f 08 f6 7c c5 db 48 bf bf
       0.5009166233094628 -0.12220548221099403
0005b0 26 ed bf 0f d6 7d c6 bf 99 81 5b 4e 3d c4 cd bf
       -0.1757152153876202 -0.2325512535671919
0005c0 15 c7 6f 02 99 e7 e3 3f f4 38 a3 5d d4 12 dc 3f
       0.6220212028112849 0.43864926475806887
0005d0 9d e1 74 98 41 89 da 3f 0d 6b e3 7f 5d 81 41 3f
       0.41462745560013464 0.0005342203656043279
0005e0 91 a2 5f b0 8e d1 9d bf fa b1 7e 9e 90 36 da 3f
       -0.02911971045969836 0.40958037832277194
0005f0 d1 30 8d e7 28 3b d3 3f bb 36 ac 0e d7 9e c7 3f
       0.30048582661107753 0.1845349141735165
000600 5d 4a 69 f6 24 09 bc 3f 59 d2 9f 03 b7 36 df 3f
       0.10951453224087389 0.48771453241287116
000610 e8 ed 89 e1 e7 84 d2 3f 37 14 40 54 f2 7c bc bf
       0.2893619253661357 -0.11128153378383919
000620 6d 9c c0 d9 6c b5 cd bf 07 f3 4a 14 c5 0e c5 bf
       -0.23209915764275327 -0.16451323977334928
000630 0a 89 19 1b 66 6e de bf 0c b2 90 2e 73 ec e4 3f
       -0.4754882111211748 0.6538635167576685
000640 3b 35 14 ea ab 06 cd 3f ee ba a2 49 57 e1 af bf
       0.22676609925876243 -0.0622660901438986
000650 a8 98 a0 03 e7 11 9a bf df 21 5b ab 97 ae 80 3f
       -0.02545891723288976 0.008145508686895063
000660 8e e5 bc c3 93 7a d3 3f a9 87 bc 31 88 b9 db bf
       0.30435651888873216 -0.43319897515368183
000670 b0 0b ed 49 e5 fc d2 bf 88 a2 36 ab be 64 b3 3f
       -0.29668552607852927 0.07575599365248753
000680 1c 68 67 56 04 fb d0 3f 7d 93 a4 90 83 f7 d2 bf
       0.2653208583629991 -0.2963570511367875
000690 34 f3 d2 59 e3 36 b6 3f d7 39 78 b1 19 74 e9 bf
       0.08677502577752422 -0.7954224077419053
0006a0 54 71 3d c1 f8 72 b5 bf 6c 64 f7 f7 47 e7 5e 3f
       -0.08378557889722532 0.0018861964052716796
0006b0 c9 92 21 93 09 22 d7 bf 80 81 82 23 3b f7 8e 3f
       -0.3614524781062696 0.01511999323003077
0006c0 ca b2 60 1b 8b 85 e5 bf b6 1c 1c 71 f8 5c c5 3f
       -0.6725516829224827 0.16689973376216977
0006d0 d9 fd d1 b7 7c 0a da 3f 41 1f e0 b8 39 65 b3 3f
       0.4068900866622847 0.07576332820474098
0006e0 e0 21 1e 74 c6 f0 cd bf 23 03 ae 2d 0d 5d dd 3f
       -0.23391037626085076 0.45880441151534707
0006f0 e7 2e bb df cb 7d b1 3f f0 f5 7b 48 d0 5d e0 bf
       0.06832575046717758 -0.5114518562037897
000700 c4 8d 85 f6 67 d3 c1 3f b5 63 32 c3 cb 69 cb bf
       0.1392641023368083 -0.21416613608451276
000710 ae 15 0b bf d5 1d c3 bf 34 c9 0b 54 43 c8 c7 3f
       -0.14934799030576812 0.18579904178438655
000720 83 b7 d9 1a 39 4d da 3f 58 e6 fe e1 9d 82 b3 3f
       0.410963321896695 0.07621180312607956
000730 06 51 9c af 86 9a a6 3f 57 5e 58 23 12 d0 b5 bf
       0.044147690712778284 -0.08520615923804918
000740 30 3a 87 c7 5e e3 e7 3f 32 3a f1 e1 40 a3 db 3f
       0.7465051552806639 0.4318391996829717
000750 37 b2 a5 ba e2 a6 c9 3f 69 0b e4 67 cb 67 ca 3f
       0.20040544618258746 0.20629255841057706
000760 2b fe 74 25 92 23 dd bf e4 95 b4 d3 05 2e e2 bf
       -0.4552960744658516 -0.56811801289285
000770 a5 84 4c 85 b7 7f b3 3f dc bc de 7b a0 dd c4 3f
       0.07616755489699985 0.16301351593344904
000780 67 08 64 be 89 a7 bd 3f 6e 24 55 c7 ed 15 db 3f
       0.11583767793857334 0.4232134291274353
000790 b3 2d 46 fc d1 42 ce bf 0b 6a a4 24 78 f0 da 3f
       -0.23641419237206449 0.42092708185524036
0007a0 3e 97 42 2b ca de d3 3f aa 56 ee 23 09 cb e1 3f
       0.3104730055296051 0.5560346318986451
0007b0 07 54 f9 84 4c 02 b7 bf 3f a0 23 ed 8b cb b8 bf
       -0.0898788284915356 -0.09685587443857545
0007c0 bf ed c7 6e cb 63 9b 3f 38 f9 63 bd c2 6e df bf
       0.02674787391332045 -0.4911352967755138
0007d0 66 0e 95 2f 2f e9 cb 3f d4 3b 55 f2 5c 9c dd bf
       0.21805372069694612 -0.4626686445744188
0007e0 17 90 84 45 11 cc 93 3f 37 25 66 02 fd e8 ba 3f
       0.0193331431083977 0.10511761959619013
0007f0 7f a5 e4 38 42 7c cd 3f 71 5b 68 08 d6 53 d2 bf
       0.23035457399354795 -0.2863669473749076

bias_0 f8 [128, 1]
000000 88 03 ef 48 0c ac a4 3f 40 71 0c 7f 54 21 92 3f
       0.040375121977837714 0.017705269102507915
000010 60 67 05 63 0c 39 79 bf 75 b5 86 59 43 91 b1 3f
       -0.006157921205465516 0.06862278876970669
000020 8a 87 3c 79 20 5c b4 3f 81 45 75 5e 82 cf 84 3f
       0.07953074416994191 0.010161417491562076
000030 43 eb bb d5 c7 1f b5 bf 20 04 45 f7 cf be 68 3f
       -0.08251618354908623 0.003020673926727571
000040 e3 d2 cb c5 6f 31 aa 3f 07 76 43 07 b9 e5 a6 bf
       0.051158421416323006 -0.04472139562288296
000050 af de 68 3e 6f 6f a2 3f 67 13 fc 8e 67 6e 42 bf
       0.03600642811619303 -0.0005624776513007802
000060 36 8d 65 09 24 de 89 bf 5f 6f 5f 9d ae 7b 8a 3f
       -0.01263073114086542 0.012931217363010892
000070 83 b3 9e 19 a8 2e a6 bf 37 b8 e4 93 a3 e7 b1 3f
       -0.04332471192115064 0.06994078026465976
000080 eb 2b 9c 2f 22 19 b7 3f 27 5f e7 90 d5 4b 9e 3f
       0.09022725736956232 0.029586159676767167
000090 d4 7d 33 d3 24 6b b4 3f ec 15 55 2d b7 21 a9 3f
       0.07975988537099649 0.049085354121910146
0000a0 6b e4 83 8a 8c 59 a4 3f fe 78 5a 7d e6 6b 66 bf
       0.039745704563707594 -0.002736997771378146
0000b0 5c 66 ff 18 59 11 67 3f 8a 40 b4 06 1d 4a 9e bf
       0.0028158893764896175 -0.02957959512156142
0000c0 18 83 a7 c7 ad 4c c1 3f 2b c3 ba 72 2b 68 92 bf
       0.13515255211589117 -0.017975500943694527
0000d0 f1 4c df 56 12 bf b0 3f b6 cc 26 96 3e 46 a3 bf
       0.06541552182106948 -0.03764529784111785
0000e0 75 93 2d 83 b0 c6 82 bf fc 69 84 2c 18 8c ac 3f
       -0.009168032649265115 0.05575633567260138
0000f0 6b 45 14 7f 87 1c bf 3f 1c 44 ec 08 a1 4e 74 3f
       0.12152907230872294 0.004957798998263232
000100 36 ae 67 57 ae 0c a2 3f ee ee ce 80 92 03 a1 bf
       0.035252998513751896 -0.033230379317925926
000110 88 c6 07 87 59 46 8a bf 0c 4c 2c 39 44 d5 b7 3f
       -0.012829493935871086 0.09309793849779185
000120 9a 43 4b cc 39 3c 97 bf e7 b3 b2 a7 82 23 9b bf
       -0.022690680593601444 -0.026502648816563747
000130 0c 0f 2b c4 11 00 84 3f 73 ac 55 38 26 59 72 bf
       0.009765757369116133 -0.004479550644968733
000140 a8 70 0b 74 0a d3 af 3f 2c 8e 2e f0 89 4f ac 3f
       0.0621569887786973 0.05529433304698403
000150 e3 38 84 41 5d 0f a7 3f 48 d8 29 fa 92 30 b3 3f
       0.045039095161074426 0.07495993239885579
000160 e7 3b 67 69 fe 58 8d bf db f4 31 bd 69 c8 84 3f
       -0.014329898444797663 0.010147882543828526
000170 05 c6 f5 d6 71 01 ac 3f f2 b1 8f cc cf 85 a8 3f
       0.054698522081604785 0.04789590236746112
000180 74 23 47 ee 07 68 ae 3f 6f da f6 5f 02 53 b2 3f
       0.05938744338670335 0.07157912104489993
000190 13 67 82 85 00 ee a2 3f f2 e7 c6 1f 44 53 a3 3f
       0.036972061440975555 0.03774464500334308
0001a0 0e 27 1b c9 6d 8e b1 3f ba 94 6b 99 a2 12 99 bf
       0.06857954177681 -0.024485149969127852
0001b0 a1 70 ca 1c 38 66 b1 3f df 41 eb 47 0c 24 a1 3f
       0.06796599104785851 0.03347814920346414
0001c0 fc 4c 38 60 9b 20 99 bf 8c 23 50 76 c3 df 98 3f
       -0.024538448093221796 0.02429109010339263
0001d0 68 3c db ea 8b 4a b0 3f 72 c7 01 ea 73 d0 a3 3f
       0.06363749011801334 0.038699743571568926
0001e0 af d8 fb da 7e f9 aa bf 14 0f 3c 8b 4c 8c 62 3f
       -0.05268474982396875 0.002264165401244864
0001f0 a0 35 50 ce a8 36 9a bf 2c 1d 10 e8 e2 f8 af 3f
       -0.025599134056439987 0.06244572718429206
000200 e2 44 66 38 8f af 9b 3f 7f 8f e2 24 a8 b2 a6 3f
       0.0270368936704174 0.04433179331070302
000210 67 d6 89 7e db 99 92 bf c5 44 f8 77 2f 85 9d bf
       -0.018165044401447974 -0.028828374574065636
000220 48 8c 02 46 d9 9c 6c 3f 8b b9 8a f9 e0 db 96 bf
       0.0034927600500665214 -0.022323146086529227
000230 b3 c7 8a 1f eb 0f 8f bf 0c 34 4a 9c a6 e4 7e 3f
       -0.015167080783928677 0.007542277166646915
000240 a9 a7 99 14 b5 0f b0 3f 35 de 7a d5 6a 54 7b 3f
       0.06273967507300306 0.006672303504891943
000250 e6 76 db 32 74 19 ad 3f 42 f1 4d da a9 d6 93 3f
       0.05683482285324519 0.019373563718077642
000260 8a 89 ef ac f6 a2 b7 bf d0 b8 2e c4 00 a2 aa 3f
       -0.09233037683546833 0.05201723475271225
000270 14 da be eb 9e f0 9f bf 41 60 71 7b 09 f9 88 bf
       -0.031191332949413633 -0.012193750457456189
000280 cf 5f bb 42 74 aa ab bf 43 fc e8 c7 c8 7b 9c 3f
       -0.05403483690832866 0.027815949632209912
000290 0a 97 6c a3 3f 99 8e 3f 63 c8 0e f2 4a d4 80 bf
       0.014940735983667536 -0.008217416297927998
0002a0 51 2d 05 e0 bc 60 8e 3f ee c3 e3 19 20 fc 9a bf
       0.014832950197748803 -0.02635240705507507
0002b0 36 35 9f 84 ad 43 72 3f 9f ca 02 3d 91 a0 80 bf
       0.004459073834323582 -0.008118757891087567
0002c0 77 e2 8f 13 27 db 82 3f e6 c8 18 79 74 ee 8b 3f
       0.009207062992559785 0.013638410516339804
0002d0 62 70 f3 6f 9a 7f 94 bf e6 81 66 aa 65 d3 c0 3f
       -0.020018017847960208 0.13145132847149837
0002e0 03 a8 88 ab 77 02 88 bf 7e 15 8f 07 e7 93 82 bf
       -0.01172345630864769 -0.009071164053134902
0002f0 54 35 12 cf d9 ea 88 3f cd cb 67 ab 49 cb 91 3f
       0.012166692382630608 0.017377043806799542
000300 08 30 70 97 32 c8 97 bf f8 08 02 15 a7 2c c1 3f
       -0.023224630826050002 0.13417519117144372
000310 22 6c ed 8f 08 99 a2 3f 2e 38 d6 d5 80 a4 bf 3f
       0.03632380253721858 0.1236038705885398
000320 6b 07 6e 5b fb 6e 86 bf 44 d0 51 9e 9a 42 b1 3f
       -0.01095386860629662 0.06742254605507109
000330 3f d9 60 b7 f8 84 b9 3f 4d 0e ed fd 87 4b a4 3f
       0.09968523480424539 0.03963875746424304
000340 01 72 25 0e 6f a9 85 bf 42 85 46 76 0b d7 a4 3f
       -0.010577075595102238 0.04070316141884202
000350 cd e3 4e cc 13 45 a6 bf 9e 14 69 1c 75 39 bf 3f
       -0.04349576825138222 0.12197048133482943
000360 02 d2 e4 a5 8c 19 a3 bf c0 11 ad db 83 c4 a7 3f
       -0.037304301500999074 0.04642116600601609
000370 da e5 8a d4 19 fc b7 3f 9d 97 23 f0 ae fb ae 3f
       0.0936905044462927 0.060513941587301924
000380 b6 32 48 e9 6f 57 b4 3f 86 2e 30 b7 e8 23 b2 3f
       0.07945918507921132 0.07086042854660421
000390 ec 05 78 89 c5 79 a6 3f 79 80 6e 87 9f 53 97 bf
       0.04389779379927092 -0.02277993454083613
0003a0 91 a9 ad b1 23 82 98 bf 90 30 30 55 57 a6 72 3f
       -0.023933942527415267 0.004553166526431465
0003b0 2e 73 43 5b b1 b6 81 3f 15 82 bf b7 b2 9e aa 3f
       0.00864924011005427 0.05199202054041422
0003c0 88 fa 0f 4a 47 b4 a6 3f ac a3 48 da cb 81 a8 3f
       0.044344165602514585 0.04786526717754866
0003d0 5e 7e 60 38 15 95 a3 3f d0 1c 27 34 33 ae 67 3f
       0.03824678719706463 0.002890682227391396
0003e0 80 75 82 d3 a7 eb a8 3f 12 8f 70 09 fc b7 59 bf
       0.04867290932564128 -0.001569744233855756
0003f0 d3 88 cb b6 f1 2a 91 bf a2 ad cf 16 76 40 9f bf
       -0.016765381605076634 -0.030519337789809982

bias_1 f8 [64, 1]
000000 0b 96 01 16 d8 5e 8f 3f fe 90 d9 62 f6 7b a2 3f
       0.0153176194873579 0.036102008406290395
000010 5b be 25 8d 57 5e b6 3f 39 52 14 1d 50 45 95 3f
       0.0873770446394188 0.0207722203968663
000020 84 82 f8 70 96 17 8b 3f 9c f9 06 36 8c f0 aa 3f
       0.013228583643525534 0.052616483302233535
000030 ec 67 c2 95 f8 9d 8e 3f 73 08 5a 6b aa 7d a3 bf
       0.014949743337911735 -0.038068128208593864
000040 15 53 cc e1 3a d5 9d 3f b7 15 04 45 d7 f4 82 bf
       0.029133720428109095 -0.00925605944986328
000050 67 a4 9d 5d 09 1a 62 bf 8b 35 6e 95 10 e2 6d bf
       -0.002209680836064143 -0.003647835149826311
000060 72 c7 f3 00 56 fc 91 3f c5 42 8d 44 7e 44 9f 3f
       0.017564147766229117 0.03053471845061286
000070 be 2c ea 1d c2 95 b5 3f 6e d7 06 c7 45 62 34 3f
       0.08431637983646831 0.000311033282766152
000080 96 08 1e 54 51 70 88 3f 54 c6 32 77 f8 1b b4 3f
       0.011932978992039527 0.07855179700961773
000090 c8 cf 5d ef 75 25 60 bf b0 da 2d dc 38 dc 97 3f
       -0.0019709876459561328 0.023301018179575805
0000a0 57 51 c2 ec 1a a0 b8 3f 50 c0 f2 25 f6 91 79 bf
       0.09619301109552701 -0.006242715374512001
0000b0 51 c9 04 0b 2f 2c b3 3f d7 ba ef 88 f3 cc 78 3f
       0.07489294070254472 0.006054831798776936
0000c0 06 71 b6 fd 26 32 ab 3f 93 40 db e9 95 be a6 3f
       0.05311700675085444 0.04442280273144763
0000d0 59 11 b1 54 f8 78 a2 3f f2 2d a9 04 58 f3 86 3f
       0.03607917817911028 0.011206329004514768
0000e0 d7 fc 78 94 7a f4 b4 3f 87 fc 78 8e 98 f8 93 bf
       0.08185545086688549 -0.019503005691373445
0000f0 4b 33 58 29 62 c7 98 3f 76 8c 1b 7a 7c 83 b0 3f
       0.02419808747622491 0.06450632077353355
000100 89 95 9b 14 e2 11 77 bf 71 fa f9 8a 44 3d 99 3f
       -0.005632289053868597 0.024647780401659995
000110 dc bd 79 f6 52 2d 97 3f 60 b5 45 cf d4 a2 71 bf
       0.02263383511893645 -0.004305678642010008
000120 7e c6 0d 2a 6c b9 90 3f 2e 63 f6 6d f1 8e 9b bf
       0.016332330767403473 -0.02691247209222352
000130 7e e4 b6 f2 4d 1d 66 3f 56 81 82 14 41 96 f3 be
       0.002699520342244243 -1.8679552596824238e-05
000140 ce d8 e1 c5 98 45 a6 bf 06 05 e0 06 07 60 b3 3f
       -0.043499731212180856 0.07568401258324195
000150 c8 9c 66 b5 1a dd 91 3f 54 26 06 98 1b 4a 9e bf
       0.017445008584812155 -0.029579573777971227
000160 a6 6d 1b 2b 95 7a a5 3f 0c ee 25 ba c8 52 b4 3f
       0.04195085669718006 0.07938818497307681
000170 9a bc cf 59 ac 40 9a 3f e5 dd e5 ef 5a 13 65 3f
       0.025637333852441026 0.0025727058520563667
000180 79 1d 9d e8 60 5d 7f bf 72 98 92 92 8b d1 8b 3f
       -0.007657412099269728 0.01358326951078601
000190 d7 38 a0 c0 51 31 b4 3f fd df ae 7f ca 1e 89 bf
       0.07887755348949398 -0.012265760442332402
0001a0 85 45 0d f6 c0 dd 8b bf 67 db 50 46 05 5b 95 bf
       -0.013606555470377266 -0.02085502854989887
0001b0 ea 13 79 1c 04 33 9a 3f 7a 23 5d 57 8d 82 a9 3f
       0.025585235822536058 0.04982415858700669
0001c0 8d 25 82 f0 23 14 6e 3f 80 49 99 26 d5 7e 89 3f
       0.003671713060673104 0.012448945274773804
0001d0 7d b3 d5 bd 59 00 89 3f 72 f0 08 ea 1a a7 a4 3f
       0.012207699876592088 0.04033741099235123
0001e0 61 68 ac 26 91 d2 99 bf 3c 2b 00 97 5b 12 b9 3f
       -0.025217311845246452 0.09793636738338035
0001f0 91 17 05 08 86 a2 a7 3f 45 2c c4 9b 42 0c 95 3f
       0.046161831358900625 0.020554581410618295
