saved_weights.npz (npz, 876872 bytes, 6 tensors)

weight_0 f8 [128, 784]
00000000: e074 5e72 81cc 94bf a2bc 877e fde1 b03f
00000010: 6e33 5b4c d378 92bf d2a8 d0fe 686a ae3f
00000020: a5ed 7b65 5f13 ac3f eaf0 97ca 1037 b03f
00000030: a196 f29c a44a 9b3f af64 5c24 e0c3 adbf
00000040: 1213 f344 c83d a83f efaa 806b 7af5 89bf
00000050: 26ca 55c5 70c4 66bf 0488 ff9b a392 a7bf
00000060: 6236 d2ab be32 b1bf 0e11 2bc8 cf7c b23f
00000070: 0c6d d3a7 7387 81bf 9994 ac4d 5885 9c3f
00000080: e8c9 61ec 939a a2bf 6f5a e97a ea58 a0bf
00000090: 3b05 38f7 5910 a3bf 30d6 5fe3 d4f2 ac3f
000000a0: 20d1 b752 a4b3 8cbf c817 624b af40 b43f
000000b0: 427e 1deb ed51 71bf 40a1 d2cf 74eb 94bf
000000c0: cc7a 19cb c706 b8bf 240f 51cc 3e56 acbf
000000d0: 2e76 e825 29eb 9abf 28bc fde8 7e5c 593f
000000e0: 88d8 dd11 dc4b b33f 2f89 4bf6 7159 99bf
000000f0: 290c ec31 6004 8ebf 4f57 130f 27f6 b73f
00000100: a8bb 79fe 87eb a83f 6306 a03c e887 90bf
00000110: bb60 febb 590e 9dbf f551 c548 06e4 91bf
00000120: f56f ea12 b0b7 b0bf 7b3c 43b8 e28f a23f
00000130: 2c03 91c6 016e bbbf ac42 a274 d3bb 9fbf
00000140: 39e6 408b 2f7d 98bf a6d6 a211 e026 93bf
00000150: 6a2b fcee 2a03 94bf eebc ddc3 81f3 74bf
00000160: 54bc 8828 16b7 abbf 7929 64ce 4bfd a9bf
00000170: bedc 9f8d 2521 a1bf 8308 acc0 7b40 b33f
00000180: c975 daae 02b6 a23f fee1 7c0f 5afe 983f
00000190: 2bfb 3efd 2566 a63f e194 aed1 b21b 78bf
000001a0: 40ce 98f6 9d8a 9fbf b4bf 84b5 1fd1 a73f
000001b0: 1389 d72f d209 b03f 210d 049a 39bc b6bf
000001c0: 595b 6540 835e 933f bfe0 5dd9 97eb ae3f
000001d0: 1601 7b9f 17dc 8abf fd6c 6837 f888 853f
000001e0: 1388 371b 6dd5 b63f d69f 9ee9 9aad a33f
000001f0: 65f7 41a7 71b1 a33f 9677 bd06 e707 9c3f
00000200: e044 7e2a 470d 85bf 76b4 50b8 7f3f 93bf
00000210: 5462 7d37 a09a 8ebf 0f0f 3d96 0070 7abf
00000220: 1111 61b8 77af b8bf 4037 e0af e2f7 b5bf
00000230: 65a7 9f58 a575 a3bf c0f6 5467 1626 b8bf
00000240: 5bd4 d741 e82f 92bf 4b3b 615b 996d 9f3f
00000250: 4f07 daf8 4253 b43f 2fc5 5b2d eb4e 9fbf
00000260: 42be eb6b 4898 b8bf 36ca 5ad2 e838 b1bf
00000270: a378 2737 fe45 8fbf 02fb 67c2 de0d 9f3f
00000280: cfe9 299c 1a98 85bf 194d 6437 2057 93bf
00000290: b0c9 66be fec4 7d3f 35e0 5c36 4f06 8abf
000002a0: b064 cff8 5775 b4bf d7c6 4868 abc8 983f
000002b0: 1b39 b7f3 ba29 b0bf c99c ae38 90c7 4dbf
000002c0: 0695 ade4 2c51 b3bf 8568 0ebb dd92 b3bf
000002d0: 3a2e 7009 c258 9cbf 3b90 9230 8eb0 83bf
000002e0: a6a8 c4ed 10ac b53f 984a 9aba 36b6 a3bf
000002f0: cd22 4cf4 ad8f 423f 2ab6 d7fb eff6 b23f
00000300: 5bbb 5bc4 70bc b13f b931 03bd 8ad3 8bbf
00000310: c4dd 7715 d156 b0bf b65e 2568 ad70 aabf
00000320: 4d79 d9f8 ad5d 493f 1686 cae9 cb56 a4bf
00000330: 1bc2 8b72 6f59 a7bf 7e68 4d68 fa3b 71bf
00000340: 4b1a a9ed 2ef5 b43f c5d8 e840 dd1d 883f
00000350: 18d2 ad99 f209 ad3f 3598 8a5d 20d6 88bf
00000360: 96b0 56f2 facd a4bf faa0 685f 58c2 81bf
00000370: 3257 4d0e 1625 963f 7dbe 54a2 5675 963f
00000380: 3106 b6b6 8361 a1bf b953 686b 11bc 7e3f
00000390: 0fed 0b80 51e7 b3bf 3a96 f496 1305 96bf
000003a0: 6d9b 23dd 711d 703f 97b4 a148 bc3d b03f
000003b0: 9b64 a0c2 3bd5 aebf a3df eac6 5b3c a23f
000003c0: c37e 6e1f 5f34 62bf d79a 1e6f 28cc ac3f
000003d0: 9577 79d8 6534 bf3f 9c59 a56b f8e9 7e3f
000003e0: 7c1a 5843 e13f 883f 5fe1 1370 7084 813f
000003f0: 344e 54cb d058 afbf 6a52 95bd 88b5 b9bf
00000400: 168f 2424 39de c0bf 0355 7812 8920 9cbf
00000410: ca5a 31e9 5dc4 823f e0fd f8ec 5701 c0bf
00000420: 9ada 97dc 2eef a5bf f83e 58f7 ffe7 58bf
00000430: 13c5 1d96 5d7c a2bf c9ef e31f 8c25 a6bf
00000440: 023a bf41 0f87 ad3f 8150 536d adc9 9ebf
00000450: e7b1 d6f9 264c a2bf a838 e8ca 8656 90bf
00000460: 029b 62eb 4eda 59bf 601f 55fa 3f35 b4bf
00000470: a4de c804 221c a6bf 26ba b70e 8632 9bbf
00000480: a49f db7d bbf3 a4bf a7eb 2ee5 199f 94bf
00000490: 3442 9969 50ee a7bf c347 1ddc fa73 b3bf
000004a0: b424 07c9 2935 993f 807a 32c4 b1a1 873f
000004b0: 97b5 d2bc 05fa 963f 5973 f4a4 75d5 6ebf
000004c0: 3fc1 de27 f27b 693f b73e 472c d579 a9bf
000004d0: be70 264c 29fa acbf 6822 b917 cfad a2bf
000004e0: 3961 1209 823c b1bf c8db 4347 8f06 bcbf
000004f0: fe06 bf75 0d57 b6bf 482b 3b2e 1497 9bbf
00000500: 13cd 54e0 5208 a8bf 2187 0ae4 9476 95bf
00000510: ac7d c6bb c366 99bf 2211 eb66 cc63 afbf
00000520: abe5 b13a 6589 a23f 67a3 ee7b 7de4 a33f
00000530: a3ac cdec 3a59 abbf a6dd 3b84 dad2 a43f
00000540: dce9 789a 7ef7 a3bf 4dbc 28c9 a923 993f
00000550: ca85 fa40 6fc4 b13f 05d0 ecb2 d626 a9bf
00000560: e017 3885 b170 aebf 79b3 6fcb b3da 943f
00000570: 3ea5 63df a3b7 a43f 3dd5 985e af65 b43f
00000580: f79f 7f58 5aa7 673f 0ed6 44c5 9280 9fbf
00000590: e182 2bdf 988e 933f 086d 43ad 33bb a53f
000005a0: cb4c 7b46 771d a93f 6e73 2844 7749 90bf
000005b0: 0f63 8edf 8510 a4bf 05e8 40a3 98bb ad3f
000005c0: e812 51b7 f14c b5bf 91d5 7618 44b0 b2bf
000005d0: 18fb 1d29 5b0e a7bf 3a3d 770d 091b 77bf
000005e0: 24bd be08 91b2 b8bf 466b ca60 b888 adbf
000005f0: 291b ceeb e2ca aabf 3ec2 16c0 e7a2 533f
00000600: d1b0 b044 2aee b4bf 72e2 dea5 9b4c a7bf
00000610: 7bcf 47ee 8874 afbf 0bf8 2f6e 9fc3 83bf
00000620: 9ecf f599 b159 903f 48a9 612e 990a a0bf
00000630: 0657 c820 81a8 9ebf 2b44 cf98 2988 aebf
00000640: d194 b0cf b22f a83f 49bc d0c9 b694 a13f
00000650: a79d 8ca0 f305 a83f d3cf 1b97 2635 993f
00000660: 4f14 fc04 7a45 b03f 2c51 be02 e0ed 6bbf
00000670: b241 a3a6 6659 ac3f 5651 303f 40b2 ba3f
00000680: 8906 7e74 c207 a83f f904 eb66 cd85 a13f
00000690: c9e7 c15e 6500 913f 2825 bb17 eb8f ab3f
000006a0: c0af 6e60 9d50 77bf f99d 4392 1782 953f
000006b0: c19c d18a cdbe 77bf ed72 d435 2d92 9dbf
000006c0: a614 e9a8 c9d4 a7bf ad46 50d7 c1e6 a2bf
000006d0: c80e f516 fc44 483f 88c1 5e56 0228 b8bf
000006e0: fcf1 9bea ff41 af3f 6cec 7d83 a1bb b63f
000006f0: d05f 8e4f 505a 83bf f3b4 4b0d df52 84bf
00000700: 69c1 ec0a 98bc ac3f ae68 8148 4ae6 b63f
00000710: f8bd ff89 628d 9abf c8ba d3d3 2a60 b03f
00000720: a00f 6f81 aa47 ac3f dcbd 294c 9345 b23f
00000730: f778 5f1b da75 8fbf 4da0 0c58 fd42 bc3f
00000740: 759b 7b46 2014 b73f 1c02 8de5 f54e b33f
00000750: 3b66 3bdb 01ec 9dbf bb5a 8dad c177 ad3f
00000760: dfd6 24ee ba07 c03f c4c7 76a1 639c c13f
00000770: 7212 e17f 5306 c43f 8d10 9e29 0e5c b93f
00000780: 9098 fbaa ab55 b13f 6d09 4d8c e238 8c3f
00000790: 1138 c302 9610 a0bf ce04 4d79 a083 b4bf
000007a0: 0083 0204 a53f a4bf 14b8 28f2 7c6e b5bf
000007b0: 7f11 7696 7687 a2bf d440 ba2e 9fd5 873f
000007c0: a02f 7bf3 9ce0 803f 073c 2e7a f799 913f
000007d0: 0bad 3da2 e72e a5bf c978 2459 fe04 503f
000007e0: 0c48 7ba1 2c16 8dbf cb20 11ff 2172 a83f
000007f0: 44fd 39ed ae83 a0bf 1188 c296 cff6 7bbf
-0.020311377149131782 0.06594833697430372 -0.018039037261405814 0.0594055949262199 0.05483530153102415 0.06334023424273352 0.02665192802364536 -0.058135036886775786
0.047346361557663155 -0.012675243764609571 -0.0027792170100664646 -0.046040642540688764 -0.06718055434085948 0.0722169746105161 -0.00855913501657437 0.027852420559743327
-0.03633558521768859 -0.03192837477097476 -0.03723412649925214 0.05654015803876822 -0.014014514707902992 0.07911201086434894 -0.004228524559806214 -0.02042944448899786
-0.0938534613464796 -0.05534549945926262 -0.026287692011569934 0.0015479316097886196 0.07537627636142663 -0.024755268724114984 -0.014656783603191741 0.09359974020057148
0.04867196065321561 -0.016143444729101463 -0.02837505540773642 -0.017471407119346655 -0.06530285322008907 0.03625401019382309 -0.10714732263387522 -0.030989936822666195
-0.023915045618400497 -0.01870298488275659 -0.01954333385132704 -0.005115038771563036 -0.05413121456910433 -0.05076062101769003 -0.03345601419271692 0.07520268873125428
0.036544879764942424 0.024407775111486167 0.04374808040983277 -0.00588579035949019 -0.030802219558792254 0.0465173634605657 0.06264985721603393 -0.08880958566810594
0.018915224843421317 0.06039118317033986 -0.013115105204065485 0.010515155020633044 0.08919412531352604 0.03843387700845795 0.03846316496581784 0.027373895441420958
-0.010279232010164951 -0.018796916603765777 -0.014943362897313829 -0.0064544699596955765 -0.09642742396778582 -0.08581368249744248 -0.03800694186050072 -0.09433116934539054
-0.017760876673453257 0.030691524698620836 0.07939547133903811 -0.030574488299810184 -0.09607365259920989 -0.06727461944209598 -0.015270219858333716 0.030326347938166805
-0.010544021502245563 -0.018887046223494772 0.00726794728545814 -0.012707346769829634 -0.0799155218550307 0.024202993621833393 -0.06313675355997754 -0.0009087995725750804
-0.07545738776169139 -0.07645974938205498 -0.027682334734022464 -0.009614096505465955 0.08465677075278907 -0.03849955585350989 0.0005664443384328588 0.07408046625615641
0.06928162378220064 -0.013587077992632911 -0.06382471822859431 -0.051640910113460434 0.0007741069291105435 -0.03972470501799934 -0.045604212505967655 -0.004207590250041913
0.08186620046863273 0.011775711577780243 0.056716519603387805 -0.012127163748413586 -0.04063400467143301 -0.008671465312616967 0.02162584745686686 0.02193198552885044
-0.03394710164412763 0.007503574414404684 -0.07774838806283334 -0.02150374039515255 0.003934330730976804 0.06344200871690685 -0.060220592029687846 0.03561674884025414
-0.002222238337210887 0.0562451015132887 0.12189327750226504 0.007547350304170666 0.011840591304474339 0.008553388996447251 -0.061224484272454666 -0.10042624119280111
-0.13178171410356104 -0.0274678628466818 0.009163602522830234 -0.12504099913529299 -0.04284044688022455 -0.001520156828863804 -0.03610508401369308 -0.0432552136353191
0.05767104795051027 -0.030066213414855717 -0.03573724555767282 -0.015955072531192244 -0.0015779276559812487 -0.07893752919801278 -0.04318338688284243 -0.026559919975563194
-0.040922030557168726 -0.02013817273448706 -0.04674006737753125 -0.07598846315275325 0.02461686410405113 0.01153887634273798 0.022438134813162227 -0.0037638948193844776
0.0031108598331785193 -0.049757634787622455 -0.056596079393075524 -0.03648230709638228 -0.0673295280597629 -0.10947509279127055 -0.08726581692374322 -0.026943507501339142
-0.04693850506228094 -0.020960165422940883 -0.024806078277490748 -0.06130827671361973 0.03620449391832933 0.03885261667102818 -0.05341514721552556 0.04067118515188932
-0.03899760852478426 0.02455010690954067 0.06940360390083025 -0.049124440518795644 -0.05945353270730869 0.020365533153312996 0.04046356298369823 0.07967659053322947
0.0028874172748949395 -0.03076390580209503 0.01909865247842191 0.04244386186629795 0.04905293212291325 -0.015905250105891104 -0.03918856004674442 0.05807187073556012
-0.0832053253698849 -0.07300210568685929 -0.04503140332143668 -0.005641017305108515 -0.09647470916273854 -0.05768371755148975 -0.05232915047149895 0.0011985076128945417
-0.08175911118513858 -0.045506347654229354 -0.06143596562097194 -0.009650464582588133 0.015967154523835007 -0.03133085910015382 -0.029939668298616183 -0.059632587340850605
0.04723891053462526 0.03433772290770116 0.04692040762739263 0.024616816494883963 0.06356012937256249 -0.0034093260964686203 0.055369575349348735 0.10428239386266588
0.04693420097374907 0.034223955929983015 0.01660307303288969 0.05383238472638602 -0.005692114594165021 0.021004074384931546 -0.005797198199707755 -0.028877931986346295
-0.046545316571191805 -0.03691678765620785 0.0007406454950928615 -0.09436049088140497 0.06105041254884111 0.08880052051783743 -0.009449603488789565 -0.009923689454320405
0.05612635739669509 0.08945144910959144 -0.02592996566084868 0.06396739646491334 0.055234268474605885 0.0713741360611872 -0.015361503563266583 0.11039718055383325
0.09015084954044801 0.07542359213130861 -0.02922060871683228 0.0575542950015708 0.1252359068691282 0.13758511909469295 0.15644305938816988 0.09906090274859221
0.0677134792746037 0.013780374437946741 -0.031376540982464125 -0.0801334663529076 -0.039548069705466204 -0.08371716415487668 -0.03618975245175004 0.011637920011054716
0.008240915470558552 0.01718889888030264 -0.04137348037223817 0.000977753054548768 -0.01420245044520032 0.04774576414689732 -0.03225466390449097 -0.0068271740857728394

weight_1 f8 [64, 128]
00000000: f05b 4d6d de4c b6bf 8459 694b fc66 b63f
00000010: 7e0a a17c 4c6f 68bf f30e c000 d52b c93f
00000020: 47ba abce 7262 533f 4a10 a734 aaf7 a13f
00000030: 3f17 1d26 d307 aabf 79d8 a356 34b0 b7bf
00000040: 4ae6 426d ad03 a0bf 07bf 56ea bbba b8bf
00000050: a590 ad87 821c 883f bce9 169a 49e1 a93f
00000060: cb9f 8281 1dfe c03f dfc6 d450 a1d5 b8bf
00000070: 0d86 6074 4099 afbf dd2a 9e1a f389 b13f
00000080: 7156 96af 7734 c33f bbbc 0bec 543c a73f
00000090: 10f3 fadf e075 b03f ca9e a885 d362 cd3f
000000a0: 1ed5 9d5c 85a3 b43f d8f4 fd81 5624 aebf
000000b0: 9080 c87f 7abb b53f 36c7 4386 2059 bbbf
000000c0: 5a41 f96d a5a2 be3f 9572 a84d 73a4 a8bf
000000d0: 753e efeb 4302 b03f 0335 2702 2c50 953f
000000e0: 3c1f f152 675f a7bf 54ad 0b3f 8235 aebf
000000f0: d4d0 a2f6 e106 a53f f094 bbc7 349b b13f
00000100: 41e9 74b1 c1ac a33f e9f4 37c0 e76d c63f
00000110: 1f84 6086 fea6 c4bf c1be b35a fe4e d03f
00000120: 39bf a25d 9aa3 b6bf daee ad56 a0d8 a1bf
00000130: 99c8 5515 8157 bbbf e8ff 495b 8880 99bf
00000140: cf9c cd2f d030 a8bf 79fa 1d27 427d 73bf
00000150: e524 e776 b9ea a9bf eba4 c3cb ef14 983f
00000160: cfbd 7220 c0a6 b6bf e0dd 43df 6956 ae3f
00000170: 0c14 d21b 24bb af3f e909 fea2 861b bb3f
00000180: 2600 06a6 f499 c0bf b1a8 18bf 0cba c13f
00000190: 0c7f b4aa 28db c83f ab62 d6c5 ac4d b1bf
000001a0: a935 7a37 37c7 a8bf 1b24 c22e 6d13 ad3f
000001b0: 0667 cf08 f03c bc3f b146 8270 061d ac3f
000001c0: 5091 1fd3 dba8 b4bf cba3 a636 6a43 ccbf
000001d0: 0a69 c146 9e30 babf 9934 2dbd fe9f b3bf
000001e0: 31f1 3b89 01ba b5bf 7364 5d69 aaac a9bf
000001f0: a32a a755 26b0 8b3f 7661 d749 1445 adbf
00000200: d96b 5c2c 0ac7 b73f c6b7 6b54 c733 99bf
00000210: 41b4 0e1d 53a4 c0bf 5335 1468 522a b53f
00000220: 5267 8cd5 b22c c43f 3982 e1f8 91ab acbf
00000230: 11ec b5ad 4037 adbf 3622 7329 72a8 933f
00000240: 8018 5a73 efbd cabf a53f 3479 54e7 3a3f
00000250: cf40 52fb 9216 8d3f 631d 55fc 6beb d53f
00000260: 0a0b f1a2 6bbe 8c3f 639c da5a b79f b23f
00000270: 35b5 3e31 0947 d2bf 55db 0e67 67df abbf
00000280: d00e fd7b c87e b5bf 1e58 8545 fbd1 a93f
00000290: 5e9e be81 b64f aebf ad65 a840 c67e 903f
000002a0: 164c a02a a3f2 a9bf a8d3 b69d db31 c4bf
000002b0: 5d39 4a72 0b97 c0bf 8462 8366 851e 903f
000002c0: d615 523b 37f3 bebf 03d9 3fdf 6208 cbbf
000002d0: 595b 4f2c 6830 87bf 66f1 b9b9 2e9a c13f
000002e0: 82d8 f3b5 1c88 be3f d040 f653 c049 92bf
000002f0: 9585 8739 1811 993f 8d5c 5127 fbbd 9fbf
00000300: 3d59 5bc4 4c6e bdbf 46d2 d744 fb73 c0bf
00000310: 497e 2f04 1996 c13f 87a2 0eda 7579 c9bf
00000320: 45b8 92c2 e02a b03f 32c7 aece 1d71 45bf
00000330: 2d26 2760 040f b3bf a06e 2373 41a3 bbbf
00000340: 95d7 f208 9d68 a63f c60b 336a 5f2d d4bf
00000350: 692e e0f5 2d9c c63f 334e 5359 33ba 98bf
00000360: b934 7daf e746 a6bf 60a8 b234 2993 c3bf
00000370: 9266 0a02 38da b53f d66b 8d66 7b9b c6bf
00000380: 13b9 4eba a220 a83f 0f70 e05b e191 bcbf
00000390: 98a0 8a1f d273 ab3f ea80 dd9c 834b c83f
000003a0: 8d44 a521 cd38 71bf c4fd e311 787a b23f
000003b0: 2551 869e c820 a33f 238c b021 8456 b1bf
000003c0: 71f4 6393 191e c93f 6890 5f5a 81c2 99bf
000003d0: dce2 9682 3652 933f ae3e 159a 5deb b33f
000003e0: 025b f073 40ec c43f 3e10 0f5f 5668 c73f
000003f0: 5d99 f374 e6f1 d03f 7cb7 2d14 d651 ba3f
00000400: 606b bd40 35b7 c63f 250b 4164 2beb a1bf
00000410: fedb 8d7e 9963 bc3f c3ce 4685 2825 b73f
00000420: ab8f adc6 fcb0 b5bf f288 2959 6fff a0bf
00000430: 5d56 7c28 10ac 83bf ed2c dbb5 9bbe a23f
00000440: 3fbc 714a 20f5 c03f 1d0c 3e3e ef52 943f
00000450: 0917 70c7 45f6 bdbf f952 6c47 cf34 c03f
00000460: 4514 648f b91a cdbf 2e30 561c 47dc b33f
00000470: c9ec 7bc2 29e5 da3f 72e4 9b34 591f c43f
00000480: a9d2 410c d464 bbbf 27c8 27cc 7ecc a8bf
00000490: ff96 c5ed ef55 c63f 7199 3334 219b 97bf
000004a0: 639f 7963 5e3a ae3f 7c62 5de3 2767 aebf
000004b0: 7929 196f 2d7d d03f 4db7 6f38 8abd b2bf
000004c0: 9888 fd22 6d2d cbbf 3b11 f61a 0cf1 ce3f
000004d0: 86b9 6e58 bacc 9f3f 7ed4 4fc6 f02d bebf
000004e0: 84eb f210 7bff c8bf a18c ed78 992a cdbf
000004f0: af19 d858 bf6b 80bf 6ac5 abc6 ded7 bdbf
00000500: 4f3f 637c f67e b63f afce 8c02 e22f a33f
00000510: 4427 b9a2 f625 ccbf 4d91 3f12 0301 c4bf
00000520: 7437 9fd1 f44c b0bf bed1 6705 0a40 c73f
00000530: 5fa1 f7d2 3781 c23f 2f8f 4aff 91e2 d03f
00000540: 8ff1 10d2 e23a bd3f 83dc 0274 d81b bf3f
00000550: 17a4 1549 beb3 a33f 9091 fc85 ba11 bf3f
00000560: 9d78 7daa f56e 943f 6cc6 87c1 0d4f a23f
00000570: bfde 22c4 22d0 cabf 038a fe7e 6e17 c2bf
00000580: 7754 e532 4370 bc3f 5927 ab30 fb80 9b3f
00000590: 3e58 f62b 45a4 b4bf 6f06 d58e 49e0 a9bf
000005a0: a43a ac32 a9d4 a7bf 705c 038c 6298 d3bf
000005b0: f0d6 affd 884b 923f 3c9f a5f8 a012 c8bf
000005c0: cba0 5d01 1aca a0bf ad69 6bb4 22de bbbf
000005d0: 2222 66d6 f770 b93f d305 7c4b be2c b53f
000005e0: 7c9b 94fb a41c ca3f 6f63 5b81 8a8c c33f
000005f0: 0322 67d3 1a5e b13f 4c68 8e17 5992 b13f
00000600: 0d95 ec35 1a1d 753f b5e6 83f2 b203 c8bf
00000610: 7c4e a7de 0060 b03f 6d4b f384 7b44 9abf
00000620: cf34 f3fa 6cdd c73f 77be 4af3 b912 cdbf
00000630: 58c1 0651 8d89 c13f d652 93f1 b412 81bf
00000640: 3566 2a39 3ff6 d23f 1be2 a666 d999 9fbf
00000650: 32b5 19cf 30dc a53f 4289 3028 f6d6 b13f
00000660: 3802 15de 546d bb3f 9e12 5539 0fa7 d0bf
00000670: b8a9 7527 7ef5 cebf c5ec 2ab3 c891 b53f
00000680: c0ff 7111 1abe cdbf 0108 3426 e706 babf
00000690: 4856 6691 6282 c0bf eebe db10 6589 cc3f
000006a0: 532f a80e be00 a03f ab4a 4df1 3f78 bf3f
000006b0: b3a9 dc3f f066 a53f 2a31 f453 af85 b03f
000006c0: 4ba8 9d2e 2c40 ca3f 1232 d188 e4a4 d0bf
000006d0: 296f bb0a 2e61 cb3f f87d 1a6a 6124 a0bf
000006e0: 5bce 7d87 9246 b73f 1106 6710 25e3 b9bf
000006f0: 54a8 7939 21a6 9f3f 7d28 858e 08ed b63f
00000700: 5168 4a96 aafe a9bf 0b14 22a9 7cea b6bf
00000710: bd7a 3b6b 7f0f b63f 50b3 bfd4 edc9 b43f
00000720: d65e de7b 2df7 58bf 4aa5 2c25 540a ccbf
00000730: d0bd 48f8 eca7 a1bf a405 20cc 8cbd be3f
00000740: c1c1 22a4 120e d5bf 642b 00d2 22d3 c63f
00000750: ff62 a8de c2d6 d13f 97af cc86 e3dd b23f
00000760: d12c c727 e48d c2bf a0bd 7553 f1df c93f
00000770: ed4c 8b54 d16b b73f b9f6 4b9f 854c b63f
00000780: 2ae0 6f67 84a9 b83f b4b9 14e5 ff9e d53f
00000790: e1af 63d9 e411 b03f 1a11 9239 904e 853f
000007a0: e36c 179f 4994 c5bf 0134 43cd bd5d c73f
000007b0: 841c 8b1b fc1d c9bf cf7f 13aa a084 cfbf
000007c0: 0406 cfdd d242 babf be36 bb5d f57c cabf
000007d0: dacd dbbf bc29 c1bf ddf5 26fa 49a3 c43f
000007e0: b947 2f44 9387 a1bf 2e9e 496d 2c4a 8d3f
000007f0: 575e 5be8 fa82 c3bf a00c bb01 2848 ccbf
-0.08711042564878801 0.08750893441297164 -0.0029827588923876927 0.1966501477874015 0.0011831399121394902 0.035092657973593136 -0.05084094848875375 -0.09253241648898038
-0.0312780567050593 -0.09659933539546382 0.01177312828594552 0.05054693227744475 0.13275498222105706 -0.09700973723809224 -0.06171609325998526 0.0685111942276921
0.15003868173214444 0.04538216954630899 0.06429868191021293 0.2295784380560149 0.08062013159890966 -0.05887098633591287 0.08489194507319753 -0.10682872083614545
0.11966928419974945 -0.04812965701078046 0.06253456602211734 0.02081364405767251 -0.04564974677538067 -0.05900198955154204 0.041068135601933925 0.06877450825011855
0.03842740336627282 0.175229042870263 -0.16134625970247016 0.2548213849795325 -0.08843388353375027 -0.034855852681145286 -0.10680395861507676 -0.024904375621645075
-0.04724741538557852 -0.004758127602939249 -0.050618930592074375 0.02351736718347734 -0.0884819106311092 0.05925303316501718 0.06197464789969595 0.10588876227669854
-0.12969835383046407 0.13849028902888486 0.1941881974716967 -0.06759147481933307 -0.04839489509786727 0.056788837392623935 0.11030483450977266 0.05490894435309935
-0.08070157913568221 -0.22080733936789296 -0.10230435588292522 -0.07666008108681623 -0.08486947632258503 -0.05014545952025964 0.013519572724267908 -0.0571676578653663
0.09288085539849024 -0.024611582305560174 -0.13001479071445668 0.08267703095426286 0.1576140921322869 -0.055996476775139255 -0.05706216927043085 0.019197257785693554
-0.2089213670007588 0.00041051685657666543 0.014203213019101572 0.3424940075096485 0.01403507319458221 0.07274957626451477 -0.28558568772389786 -0.054438811617208906
-0.08396580721915403 0.05043015693324569 -0.05920191129490314 0.016108606048964514 -0.05067930121744994 -0.1577715416039187 -0.12960951881945962 0.015741428739462396
-0.12089867780931426 -0.21119342709398134 -0.011322797634347447 0.13751777714413577 0.11926440660667662 -0.01785946381056719 0.02447927333003504 -0.030998157763261026
-0.11496429246776514 -0.1285394750735966 0.13739311890002373 -0.19901917598078375 0.06315426588364044 -0.0006543536704752605 -0.07444789264186431 -0.10795983372684725
0.04376688703761925 -0.3152693307021618 0.17664122110032857 -0.024147798850050427 -0.04350971238327745 -0.15292849610461 0.08536100435085306 -0.17661993510668478
0.04712399029027572 -0.11160095685085046 0.05361801753071055 0.18980450782237962 -0.004204560560837523 0.07218122898847584 0.037359494544178674 -0.06772638151646553
0.19623107621001482 -0.025156041279743496 0.01886830493978918 0.0778101445368928 0.1634598318202834 0.1828716243891239 0.2647644178490703 0.10281122200623644
0.17746606503609552 -0.03499732588581698 0.11089476909351956 0.09041074041197832 -0.08473186350380384 -0.03319881404310533 -0.00960552810242204 0.03661047549175032
0.13248065600370926 0.019847620176289483 -0.11703907126510783 0.12661162364442882 -0.22737807752142394 0.07757992212117479 0.42023700707040895 0.15720667904659852
-0.10700726794477568 -0.04843517534381219 0.17449759588196653 -0.02305271035302198 0.05903906788154136 -0.05938076639603637 0.2576402268356542 -0.07320464971391268
-0.21232380112184468 0.2417311793943869 0.031054412505619598 -0.11788849679563104 -0.19529665305693922 -0.22786253361400546 -0.008018011950309793 -0.11657516813627003
0.08787479912575445 0.037474692164690786 -0.21990855164977507 -0.15628088370352558 -0.06367426030848639 0.18164181961004816 0.14456842232835762 0.26382875376497145
0.11417977932518951 0.12151863891891605 0.03848070757050708 0.12136426707417614 0.019954527407542434 0.03575938212806026 -0.20947680069888538 -0.14134007645505173
0.1110879897363065 0.026859211774343226 -0.08063156436250637 -0.050539301572382615 -0.04654434913219532 -0.30617583916813995 0.017866268619363745 -0.18806850567784206
-0.03279191271468703 -0.10885826973700459 0.09938000664090699 0.08271397917635363 0.20399915966228466 0.15272647205599862 0.06784217511370376 0.0686393435011336
0.005154707322423191 -0.18761288491787345 0.06396489559056734 -0.02565186499561938 0.18644487622660796 -0.22713398341646826 0.13701025444380366 -0.008336461660669963
0.2962797220476177 -0.030860325708745955 0.04269554641801178 0.06968630295935888 0.1071370165054838 -0.26019650076731604 -0.2418668453859263 0.08425573705874274
-0.23236394740888322 -0.10166783030220473 -0.12897903537366262 0.22294295619166554 0.03125566414754979 0.12292861596260234 0.041800983234071686 0.06453986930518299
0.20508339191593658 -0.2600642524819544 0.21390319370299807 -0.03152756138046792 0.09092059905906906 -0.101122204308034 0.03090717232991154 0.08955434302802874
-0.05077107510187829 -0.08951548699594995 0.08617397659279909 0.08120619243682126 -0.001523775499185411 -0.21906520667224988 -0.03448429613888104 0.12007980330965623
-0.32898393658527075 0.17831835988939837 0.2787329840080445 0.0736982540226435 -0.14495517675673011 0.2021466882247127 0.09148891748491268 0.0871051324756661
0.09633662724797945 0.33782956477343906 0.06277303988798578 0.010403754002489541 -0.16858787792339233 0.1825482609041558 -0.1962275633324887 -0.2462349729967159
-0.10258214869738685 -0.20693842961047965 -0.13408622139068777 0.1612331839987026 -0.034237482140852156 0.014301631055061294 -0.1524346956782547 -0.22095203480248404

weight_2 f8 [10, 64]
00000000: 08d4 bd93 f12e b7bf ff4b b91b 4487 b03f
00000010: 4394 2050 d95f c8bf f94f d0b0 c0f3 e03f
00000020: 747b ff63 4bd0 c3bf 0d44 9445 8ca8 d0bf
00000030: 45f1 412a 565f d73f 5057 7e86 4fdf cb3f
00000040: 5031 0cc4 9975 afbf 9242 9b33 08d8 b7bf
00000050: a8f9 5934 0c54 d43f 7ead 071a 1fc6 b7bf
00000060: a5d5 6c7e 6c10 bbbf 5b69 2bfd f044 a23f
00000070: c9d0 d3be 4b4a 8ebf 9db8 c99c 451e e53f
00000080: e19f 222c 7960 bcbf 1b95 a337 badc d23f
00000090: c0d3 d101 eaec c53f bdb4 f625 673a 9a3f
000000a0: aa8a f7b1 6e01 cd3f 22d2 ac0a 41c7 c33f
000000b0: 6dcb 028c 6250 b6bf c75e 97a9 8a49 babf
000000c0: 5c93 5cd0 0de8 c43f 9afe fbdf e2ab 89bf
000000d0: e598 50aa 4ff5 dabf ccd4 75e2 eb92 dbbf
000000e0: 6ebb dd76 f6a0 d43f 43c9 aae7 10be bdbf
000000f0: 1a1b 4011 d9db d2bf bcaf d217 4423 bc3f
00000100: 7279 ac3f 6fe4 e1bf 20e2 c09e 202e b83f
00000110: f8e0 3589 b09b ddbf 72a2 325f 4822 cabf
00000120: 7f18 fb82 0e08 d83f b4da d203 44de c8bf
00000130: 2fde 40cc fa58 c0bf 7db4 6362 84b9 be3f
00000140: c085 16ec 7385 d03f 3680 2978 88a9 d33f
00000150: efd8 7d60 6c2e bcbf b8cd d7f6 0812 b8bf
00000160: c07b 93d6 d2a0 b1bf d436 645e 8e69 d33f
00000170: 2290 ce5c 6a69 e53f 3cce ef8c 7c9e 88bf
00000180: 744c 6fe9 570e e1bf 5619 dbd6 33ab cabf
00000190: ff53 eb7b 00c8 d4bf e595 2020 1960 d3bf
000001a0: 7e7b 8d6d 0531 c6bf b71e 454c 405a 9dbf
000001b0: bac5 7e30 96a7 a23f d48d 4fa0 b7e6 b2bf
000001c0: 2913 fd96 e523 b03f 7efd 5214 7d3c 913f
000001d0: 642a e388 03e6 cabf 5cfc 6805 8b4c c13f
000001e0: d9a7 5aba f284 c53f 4bc0 cbc0 2399 c03f
000001f0: 4b4a 2cb0 ed0b c23f 6843 c5d0 d58d d43f
00000200: 9a12 5a67 f6a5 acbf ec6b 0ad9 bc5a c9bf
00000210: f7b1 82c7 9a5f c1bf a16e 8d9b c6de c93f
00000220: a014 7983 32f5 e03f 8a28 0f09 ebbf e03f
00000230: 2c3e 8d22 8d7f a5bf dae4 a09c 66cf c3bf
00000240: 502f fb0d fd41 8fbf 2269 6143 2989 c0bf
00000250: 8375 37a6 a174 c93f 3126 eee5 558e c5bf
00000260: d19f 167c 20aa d0bf b540 23f5 2786 de3f
00000270: 4893 28b8 1a65 d73f c02c 8d5a e17d dd3f
00000280: 78f0 c605 a81e 7fbf e96e 7276 9fdb c7bf
00000290: 6aec 3e78 0190 e3bf d28c aaa4 40c5 dabf
000002a0: 4ff0 6f18 9256 c93f 7b4e a1af 2d1b 9c3f
000002b0: 7f86 7ad1 e940 d83f 6826 9e06 458c d0bf
000002c0: e108 c27a 526b b5bf 5d33 9053 5869 99bf
000002d0: 0308 7f58 fee6 983f 307f e7ba 98bb d6bf
000002e0: 3b00 c6cd 2d6f b0bf 93c3 567a 8f93 e53f
000002f0: e1a9 ac41 9468 c03f 858e aaef dedb d53f
00000300: 66e5 a99a 44f3 80bf 33db 4316 102e d33f
00000310: 67ec 674c 1063 c63f 845f 0bd6 1435 8bbf
00000320: cf46 bdc7 d3e1 d0bf 0720 e316 0892 e53f
00000330: b752 3c88 ddbd c43f 3ef4 919e d9a1 e4bf
00000340: 667d cacc ceef b1bf 0aa4 6064 499e a23f
00000350: 2a92 88aa 2b8c bc3f 222e f723 f0dd dfbf
00000360: 430f 8fae 28e2 c73f d155 8838 5e3a 78bf
00000370: 1247 9b13 d652 a6bf 2228 4297 79db 2dbf
00000380: dddb 97bb f629 bf3f 4458 8b19 7eb7 bb3f
00000390: 6650 9c39 5066 db3f 4a12 ba00 c0f9 a03f
000003a0: 29a4 5c58 1226 a9bf 9dfa c725 a432 77bf
000003b0: 8896 c261 0531 cd3f b761 39f0 46ce b83f
000003c0: 8bfc 2f04 fcd6 8fbf 1537 a321 643b a73f
000003d0: 464c 13b5 ed7c cbbf 405e 496a 01a6 c33f
000003e0: a338 265b db52 b53f 7309 62f0 0c40 91bf
000003f0: 5cb8 e485 b2b9 c53f bcb6 e6d0 5816 cb3f
00000400: 2b0b 14db fdcf ad3f 1dcb d550 73f3 b43f
00000410: 72c2 ffba 489d d23f ce2d 1d2b 0c6d cbbf
00000420: ddce e2ad 7df3 cfbf 86a3 7bc0 fbab d4bf
00000430: 32fd a210 564f e43f ca60 7e7b 3c97 db3f
00000440: f94f 5a69 75d3 92bf 7d0f 0dd4 7a43 df3f
00000450: 247f 7155 46d1 c63f a649 b7ac d6f7 c0bf
00000460: 8471 e586 ab4c a2bf 18ca c69e e145 84bf
00000470: ef4a a4ed 0166 c2bf 86ae e24d f8ed c03f
00000480: 0c70 eeb5 587d cbbf 2485 633e 1349 c2bf
00000490: 3ad9 acdd 8a0a b43f b1e2 ad53 377f abbf
000004a0: a520 041f 9f4a dabf f163 fca7 cc1a d13f
000004b0: 6887 89c4 44b9 c7bf c34d ead5 581a 803f
000004c0: 6d7e 44cc a0f2 e53f d3bc 18de cea8 d0bf
000004d0: 9135 51e0 bc29 d23f 2a8a eb64 d3b3 e0bf
000004e0: 3a85 96cd 219c e2bf 337f b546 a466 943f
000004f0: 19a9 252a 5346 a7bf 6b59 aa68 cfe7 dabf
00000500: e4b9 5d9a ac6f d53f 59db f594 b852 d5bf
00000510: a44b db79 54b3 d5bf 23e1 9f97 4dad cebf
00000520: 3c32 357f d172 c43f 2807 6601 5786 e53f
00000530: 30ca 91f8 ed81 e03f 8697 3654 08a8 933f
00000540: 52e3 d759 becb c7bf ec51 3bf7 c6b2 cabf
00000550: c77b 2ce9 4838 c93f dbfe a6af 244d c7bf
00000560: 7b6c 030d 4c89 bdbf 3bfb f8d4 67b1 cd3f
00000570: d73e ef29 aaf6 993f 90dd 166b 1228 cebf
00000580: 7347 dec8 8f0d cc3f 5c49 8a57 02c6 d6bf
00000590: 4196 3311 6410 c2bf e678 c50d 8e84 e23f
000005a0: 7e6a 2969 a453 c4bf d6ef d8b7 7518 873f
000005b0: 5b22 4e25 7165 e4bf 66e2 c9a9 662f af3f
000005c0: 411e 0eaf 3845 c0bf b92c 6133 f70d a13f
000005d0: f72e 8855 d005 c23f 345b 293e f2be d1bf
000005e0: d200 0a7c d263 e13f e8c6 99bb 6672 a7bf
000005f0: 1238 8590 6aee e3bf 2006 903c b419 e63f
00000600: 9989 64e4 4f69 c43f ca31 8a5a 4f76 d43f
00000610: 790b 1a97 44b0 a6bf 25a8 523f 331e adbf
00000620: 610c ffb9 bcee d5bf 2efc bac4 1bff c23f
00000630: f199 4c58 180d a73f 10c4 9b34 8008 c5bf
00000640: 2868 cda1 bcfa d5bf 8506 18f6 ff9e c33f
00000650: 32d6 754f 0266 923f 6b8f ca66 0d71 cabf
00000660: fcb4 56c4 4170 c8bf 8320 8887 c7c6 e53f
00000670: e54f 59c6 9e42 973f 770c 3626 56b6 d1bf
00000680: 26c7 cd46 bc1b bdbf f3e0 6ac6 895e b33f
00000690: 08a6 9477 ecab d43f e79a a85b aed4 8a3f
000006a0: e2e4 010f 9d4c bbbf a48b cba2 c770 b5bf
000006b0: a812 3646 14b7 d9bf 8077 e5a0 071f b33f
000006c0: fc49 79ae 0658 893f 2654 b782 77c1 d4bf
000006d0: 725e 4343 6d91 bd3f 27b2 c11d e9bb ae3f
000006e0: 9cda 3ddd 1e8b be3f ce63 5097 3903 debf
000006f0: ec5a 2ebf a85f a9bf 985d f8dc aaac d2bf
00000700: 8cc0 1913 51fb d33f 19d1 9c93 b261 c53f
00000710: 211a d469 873d ec3f f2d2 9749 94f2 d8bf
00000720: 3942 1877 0577 a53f 6814 239f 0af6 c2bf
00000730: 9eef 6303 6cbf d0bf 6b0f 8194 a56a cabf
00000740: b08c 5c53 4e88 c0bf 5f34 90ec 19ae c0bf
00000750: 48d1 1194 6d1b c2bf 72ef 7dcd e375 b8bf
00000760: 6f39 161c 9055 a43f da76 fabf 66ed d63f
00000770: 8f2a 741d f363 e0bf ad22 597a 4188 dfbf
00000780: 91bf f6c8 bea2 d73f 2457 8d9f 401a 8f3f
00000790: 4819 85d1 68e5 e9bf 96e4 5aec d888 e1bf
000007a0: 20fa a2f6 3b3a cbbf b0f2 1bbc c77f 90bf
000007b0: 0a77 115d aa02 cb3f aa7d 19d2 90b4 99bf
000007c0: a45a b8a2 efe3 ed3f 62f4 0cdb f24e c3bf
000007d0: 247b 16ab ff3b d43f e08a 2aea 140f c5bf
000007e0: 2d9c a2bc 930b e73f 244f 0976 1156 c6bf
000007f0: a8e0 6fd2 a4f6 a73f 86d7 bd58 1eb6 d4bf
-0.09056005341501827 0.06456399609423612 -0.19042507564987163 0.5297549680130934 -0.15479414351190324 -0.2602873496517198 0.36519388319699814 0.21775240008417507
-0.06144409673842921 -0.09314013729022921 0.31762986290405104 -0.0928668440389426 -0.10571935736228129 0.035682230858315754 -0.014790145646181323 0.6599453031792738
-0.11084706618805697 0.29472213204856396 0.17129254425858953 0.025613414470787122 0.2266062134722991 0.15451825162166793 -0.0871640769790198 -0.1026846565285907
0.163331724871706 -0.012534878216228496 -0.4212226069670478 -0.4308423720861583 0.32232438667317964 -0.11618142753539921 -0.2946684521161146 0.10991311627975525
-0.5591350787761213 0.09445384860817585 -0.4626275386758745 -0.20417122505502366 0.3754917410955229 -0.19428301035596507 -0.12771544431028434 0.12001826669775713
0.2581453137919105 0.3072224782426959 -0.11008336406471007 -0.09402519251289376 -0.06886022318529594 0.30331763475338147 0.669118100417567 -0.012021039057777398
-0.5330009040138877 -0.20834968558319628 -0.32470714665879535 -0.3027403653853454 -0.17337100838900804 -0.02866459336772095 0.03643483488066175 -0.07383296645962584
0.06304774223560784 0.016832308164109737 -0.21014446433976552 0.13514840854802201 0.1681197557384724 0.1296734515558476 0.14098902799794852 0.3211569346213339
-0.055953693500702076 -0.19808159444514162 -0.13573012105679513 0.20211107821784416 0.5299313133079018 0.5234275032937756 -0.04198876425527617 -0.1547668709552344
-0.015262581814930037 -0.12918582716049182 0.19887180915877076 -0.16840623595298745 -0.26038372152333716 0.47693823756436454 0.3655459211752725 0.4608081230441705
-0.007597595537330297 -0.18638985904259833 -0.6113288258124048 -0.4182893379276723 0.19795442765451063 0.027447427601443124 0.3789619966210935 -0.2585613789202399
-0.08366885659237112 -0.02481592187909897 0.02431867041719472 -0.35519998791095286 -0.06419645570531511 0.6742627515251222 0.12819150168191043 0.3415448513498876
-0.008276496858558868 0.29968645262072185 0.1748981831623013 -0.013284838468663691 -0.263783402498217 0.6740761229530116 0.16204423095827789 -0.6447570893357193
-0.07006542682437597 0.03636388159095112 0.11151383317389532 -0.49792102348576084 0.18658932231311995 -0.005915039110296631 -0.04360074033105667 -0.00022779330504746435
0.12173406677162242 0.10826862453117864 0.4281197130778821 0.03315544136879518 -0.04911858872066716 -0.005663529588217611 0.22805850289767116 0.0968975388035521
-0.015546769025603055 0.0453749934255098 -0.2147500166089193 0.15350358667159192 0.0832955453426814 -0.016845895931063958 0.1697295335556558 0.2116194744134442
0.0582274751596031 0.08183975909723214 0.290849859825392 -0.21426536660361112 -0.249618253617533 -0.322997034045834 0.6346845936713292 0.43110572872093356
-0.018384775691245612 0.48849364002330004 0.17826155826605217 -0.13256343301197865 -0.03574119588549521 -0.009898913057303324 -0.14373802283861134 0.13226226618768439
-0.2147627724015141 -0.14285507723165225 0.07828586494438108 -0.05370495697474576 -0.4108045390025928 0.2672607079016976 -0.18534144970459043 0.007862752941298795
0.6858676900482813 -0.26030322732090133 0.2837974730108153 -0.5219513865561727 -0.5815590873136565 0.019922797027333416 -0.045458411116515225 -0.4203985712168989
0.33494105410400565 -0.33317389056121766 -0.33907043361721834 -0.2396637907365938 0.15975397788351298 0.6726489093127599 0.5158605437157515 0.019195680751770826
-0.18590525996094215 -0.20858084747182148 0.19703017602384262 -0.1820417268445372 -0.11537623708447768 0.2319764890580361 0.025355013665658923 -0.23559789875956172
0.21916386898061155 -0.35583551930280577 -0.14112521018903304 0.5786810177776516 -0.15880255827763173 0.01127712218578118 -0.6373830536477486 0.060908516145848066
-0.12711247012724594 0.03330967428390736 0.14080242325177725 -0.2772794348760954 0.543435327781504 -0.0457946876530409 -0.622853548303967 0.6906377013075975
0.15946386959064965 0.31972106782702936 -0.04431356758597977 -0.056871034126132515 -0.3426963631029079 0.14841029268242906 0.04502178266402613 -0.1643219239117859
-0.3434287624455714 0.1532897903089642 0.017967258548614314 -0.20657508391479537 -0.19092580878115217 0.6805150649170318 0.022715073448423957 -0.27675393802218856
-0.11370445946320426 0.07566128820588229 0.32299338987158466 0.013100969478796866 -0.10663777939216204 -0.0837521336029981 -0.40179926735462823 0.07469222715505275
0.012374927711026544 -0.32430827870604373 0.11550028698126782 0.06002739418258712 0.11931031133085884 -0.46894683624992417 -0.04955794652703624 -0.2917887838279625
0.31221415391247187 0.16704399306912235 0.8825108591998437 -0.3898058623010875 0.04192368582528556 -0.14813359041559981 -0.26168346720782576 -0.20637960196665558
-0.12915972776781848 -0.13031314898435917 -0.1414620373722164 -0.09554885641949598 0.039715293339315554 0.3582398295201138 -0.5122008872288734 -0.4926913924032686
0.36930818200470933 0.015186791295188913 -0.8092540828882102 -0.5479549995717601 -0.2127146677284637 -0.01611244283320684 0.211018844073742 -0.02510286600442916
0.9340742281081771 -0.15084682174520753 0.3161620302943666 -0.16452275689979157 0.7201632198601878 -0.1745015932416375 0.04680361813365269 -0.3236156336419004

bias_0 f8 [128, 1]
00000000: a838 39fd aee9 a33f 5528 2b06 41c2 773f
00000010: 72b9 dde8 0989 82bf 1c8e e085 d394 a53f
00000020: 3bce 2a5b d9a6 933f 3252 d5e7 f64d b03f
00000030: eb31 dbda b85b a13f 41a1 808b 6dbd 10bf
00000040: c769 be75 91d9 b43f 94ff 72b9 a976 a23f
00000050: 43ff deb4 fe2e a13f 8941 e188 feaa c03f
00000060: 1e70 c19a 1a10 ac3f de97 6652 f286 603f
00000070: 795b a0b8 eb4a b03f d006 cafa 58f1 97bf
00000080: 373e 838b 255e 9fbf d844 a445 ba47 9a3f
00000090: 6368 2201 bd13 7abf 8c69 ed35 0c00 b63f
000000a0: 0c84 6f3f 9e3c 76bf cf5c 29e4 8db3 a13f
000000b0: 42c5 0d28 25d9 463f f6a0 54e8 baeb 9d3f
000000c0: 26a8 7a74 e66a 983f 982c 8f3e 79c2 b33f
000000d0: ba36 9d1c a7df 94bf 6756 b08f 24b6 b03f
000000e0: 3541 80c0 68ba 7ebf 774a d100 e5fb 993f
000000f0: 6445 9073 95ad 97bf ffeb 9255 b4c9 63bf
00000100: 4ee9 99c2 4777 aa3f 74a8 8730 9d7a bb3f
00000110: 1f23 cbe4 43f7 993f 9cdb a2e2 ed30 99bf
00000120: d7cd 0f39 fdd0 973f 11c4 9c85 4437 c13f
00000130: cd1a 9e60 9010 78bf 87dc adea 3746 9c3f
00000140: 78ed 544a b099 adbf 8402 5381 88b5 b6bf
00000150: 8dbf fb5b ac9f c03f 1fe4 4c4b 1d03 99bf
00000160: a91f f9f1 f4bf b3bf 2317 24c3 d24e b23f
00000170: 7980 730a dbd4 af3f a5ed 0a4c 6f1f 8f3f
00000180: 6695 a1e2 c5c7 b13f 59e2 69cf 7e6f a73f
00000190: 5065 69c7 d1e5 bb3f 9e01 e69b 0bdc 7abf
000001a0: b82a 7f9e e2ff ae3f 01e9 120a ad9b 82bf
000001b0: e0a1 a33e 5ee6 78bf 0186 0011 d3d1 b83f
000001c0: 33fc bcfe 1f79 8a3f fac7 45e4 0b2f 92bf
000001d0: 6133 61c2 72e5 75bf 76a7 812f 20ed aa3f
000001e0: ff65 6b1e caba b43f 8b18 bc4c cd9b 8a3f
000001f0: 25a2 255b fe5f adbf c8a6 d573 0d6e ab3f
00000200: f9a3 a0c4 efb8 823f 4632 f715 3b27 a23f
00000210: 4192 bff9 efaf 93bf 21ed 8028 5be1 c43f
00000220: e029 c932 b1dc 5cbf f411 e34d ea4a b93f
00000230: 8181 3495 3621 ad3f 3c0a d169 cf35 a73f
00000240: cf64 150e 93f0 a93f 54d3 6c3f a3dd b1bf
00000250: 6b68 46b8 1c6f a23f 4e1a d407 4e01 933f
00000260: 8e3e eb6f 0043 67bf 0d04 a296 b766 ab3f
00000270: 7605 204a ef0a 6bbf f3aa 1206 3a1a b23f
00000280: 6855 9d81 5bac 6e3f 3368 8310 7436 a83f
00000290: d69c 60f4 2070 893f 6832 d465 887f 8a3f
000002a0: 7650 b61a 0f27 a63f d182 5e06 4973 943f
000002b0: 6738 6495 10f2 9abf a3bb 833e d14f 973f
000002c0: 6e00 3157 c31d a43f 3d77 5a08 2e67 98bf
000002d0: 3c19 5136 4e79 843f 522d 1d37 dd14 8dbf
000002e0: 9211 9fac bd3f a23f b759 ae56 9543 b93f
000002f0: 2c49 1bb4 23a3 843f 780f 5690 ffbf bc3f
00000300: 378f cdd3 430e 963f db3a f7cc 95d3 80bf
00000310: 2279 0c76 a23b 86bf ad2e f1ef 8a79 9e3f
00000320: 1e0c 9663 d2e4 b53f 6d20 755c 22a2 9ebf
00000330: b891 9a9a 5374 af3f e5ab 52e3 cbb1 9e3f
00000340: 0118 d1cc a85b 903f 66cc b764 749a 73bf
00000350: 7012 37e5 3b0c acbf 6607 6db4 1569 a23f
00000360: 31f6 9412 e5e8 7c3f abe8 6421 a6d6 88bf
00000370: b6ae 2641 9ff1 963f 4c61 e707 dddb 9e3f
00000380: 5c88 3d79 eb47 79bf de50 f94a f96f be3f
00000390: 0cb6 2a45 b490 a4bf e6b3 b034 083c a8bf
000003a0: 22ec 20b4 147a c13f 67fd 3c57 2598 943f
000003b0: 5c73 cf7f 226a bc3f 4073 2385 c997 9e3f
000003c0: 2f29 e8fb 9d32 93bf e2ad 90db 7b71 6b3f
000003d0: bff6 90fa 6a89 933f eaed 1347 183e bf3f
000003e0: 1f3f a6fa da79 883f 3cc1 e875 9978 ad3f
000003f0: 1d58 ca69 870d a4bf 9e03 b628 d12e 993f
0.03889223900897437 0.005800489426016926 -0.009050443095216496 0.04215107926600245 0.019191166104702822 0.06368964347832032 0.033902909007881586 -6.385785206986396e-05
0.08144482731442003 0.036061576736300754 0.03356166799448925 0.13021833118046924 0.05481036318880704 0.002017472538869732 0.06364320046882978 -0.023381605441051445
-0.030632578506639 0.025664244175520462 -0.006366480158385898 0.08593822781168664 -0.005428903727961131 0.034573015310053294 0.0006972724369075716 0.029219551496823613
0.023845291957208435 0.0771861818058589 -0.020384417649714527 0.06527927883174699 -0.007501992404300763 0.025374963927172502 -0.023123107126655454 -0.0024155161050578573
0.05169128656867149 0.10733969149410588 0.0253573044199441 -0.024600712735913896 0.023258167846462143 0.13449913524667115 -0.005875171636836552 0.02761161203258358
-0.057813176225375906 -0.08870747716265198 0.12987284175278227 -0.024425943108529077 -0.07714777858302448 0.07151524795707735 0.06217083456590528 0.015196675785196965
0.06945454390514313 0.045772517031711764 0.10897551649522552 -0.006557507846423864 0.060545999381778015 -0.009085990781717347 -0.006079071181581658 0.09695166745270713
0.012926340066426878 -0.017757592971470594 -0.00534577205514783 0.05259037570870266 0.08097518198646723 0.012992481140383446 -0.05737299788126319 0.053574009313548
0.009141801059813647 0.03545555728087328 -0.019225835436275544 0.16312732198444116 -0.0017616014912556974 0.09879936601198108 0.056894021714700045 0.04533241430955967
0.05066356226843426 -0.06978817270721765 0.03600396871043262 0.018559664943518954 -0.0028395660914169512 0.05351804460315899 -0.003301112520603662 0.07071268699898407
0.00374429580998974 0.04729044629648662 0.012420899827772319 0.01293856201893924 0.04326674653125988 0.019971028341049305 -0.02631402885258929 0.022765416565501472
0.03928957404468823 -0.023831099758005115 0.009996996910683557 -0.01419995140499589 0.03564255459017142 0.0986874901412652 0.010076788839260852 0.11230466150123941
0.021538791468073994 -0.008216066663320578 -0.010855931499062669 0.029760523695854846 0.08552279406835381 -0.029915367978248165 0.06143437635663268 0.029975114583674318
0.015974652768157686 -0.004785971319040438 -0.05478083775554843 0.035957983278889924 0.007058043303286563 -0.012128160375699379 0.02240609011793878 0.030135587317859078
-0.006172103708964451 0.11889608459870568 -0.04016650528260976 -0.047333008224405934 0.13653811259595822 0.02011164040527316 0.11099448795671435 0.02987589717018868
-0.018747776508498844 0.003350011739277057 0.019078895133353365 0.12204124198245095 0.011951170705998103 0.05756072582551261 -0.039165717758052866 0.024592655286599922

bias_1 f8 [64, 1]
00000000: e305 44cd 08ee 9f3f 965c 1c38 1fd8 a93f
00000010: 6cfc f73c 8455 b03f fbb7 2753 46d9 95bf
00000020: 309c 779f 162e a23f b69f 3d34 da8f 923f
00000030: b3ef 043f 1476 823f 9380 d4bd 7854 9d3f
00000040: 3cd8 4c13 dd5b b33f 2864 a758 6b17 a23f
00000050: 6931 5f84 36fd ba3f dc41 a85f b369 b73f
00000060: 5acf 1cc2 73b5 a83f 6e1e 8e81 6029 a03f
00000070: d4ef dd65 7c70 9c3f ad61 74f3 bb00 99bf
00000080: 9777 4ff2 3a10 8abf 09d1 4fde fa25 953f
00000090: df14 0ef9 9c51 a13f 2ced eb1f 0668 a93f
000000a0: 45a1 235a 3fc9 9fbf 6d3a 9529 9a65 a33f
000000b0: 9c74 3c9b 24e0 a13f 1c4f 19cd 1f7b b03f
000000c0: 976a ea3d c127 8abf d60b c2e5 e50f 91bf
000000d0: 0f46 eea5 126c b83f 8a89 b830 e40a b53f
000000e0: cc2b d2e7 1bff 913f 734c 0506 9ca5 953f
000000f0: ac8e 0f98 22c0 763f 8938 9278 f86d ae3f
00000100: cbe0 b422 cd0f b73f 6a73 43cb 12ea 9ebf
00000110: 72b8 2de4 fdc7 b13f 72ac da97 17f5 a13f
00000120: bcc6 6fa4 6d5b b13f baa4 d69e 1499 b43f
00000130: 6229 af33 56f3 b53f 471a 24f1 c450 b13f
00000140: 2dc5 6ed3 41ad 81bf 6c27 eb55 e841 83bf
00000150: 4566 7941 393d b33f 5092 ed32 c91e b03f
00000160: 13ba 37d3 88f0 6b3f ee92 3744 a735 9cbf
00000170: e801 6d3f 8783 a03f eb89 f322 c9e0 a63f
00000180: 4c30 592d 707c 7a3f 4152 9e70 0368 953f
00000190: cde7 9159 4858 b73f 5386 086e ae7f be3f
000001a0: 101c 3e54 9744 55bf 7cc2 c8ec 0799 85bf
000001b0: 8719 b888 61b6 5dbf f441 9a0d b761 5b3f
000001c0: 7dbe ead0 0864 abbf 0c03 fd4d bdd2 b03f
000001d0: 3590 7837 84e4 a1bf 6d0e 984c 0c19 7cbf
000001e0: 4926 c303 8b68 513f 3c51 062c 3240 a03f
000001f0: 4d75 87ce 4ec1 97bf 91e9 8fe2 3018 b23f
0.031181466606545426 0.05047700462289943 0.06380487907880344 -0.02133664972819103 0.03550787636395858 0.018126878202934647 0.009014280484386327 0.02864254625922109
0.0756204769248549 0.035334925243383275 0.10542622310385287 0.09145661435491753 0.048259370274904526 0.03156568128093516 0.027772849767174382 -0.02441686318806695
-0.01272626926396096 0.02065269452937549 0.0338257841131424 0.04962176456134623 -0.031041135670336634 0.03788453824619329 0.03491320033047282 0.0643787265519759
-0.012771138860718607 -0.01666220869857312 0.0953990607361208 0.08219743909334035 0.01757472612784365 0.0211395624804251 0.005554328091395593 0.05943275901619056
0.09008485886886601 -0.03018979421254945 0.06945788212553497 0.03507302979172601 0.06780133499685354 0.0804608238019168 0.0857442737753096 0.06763869178039626
-0.008631243004716705 -0.009403052446390801 0.07515294884196873 0.06296975606307709 0.0034105942120199544 -0.02754842141975449 0.03225348138085221 0.04468372871066947
0.006466329757653776 0.0209045922743647 0.09119083582655137 0.11913576303825239 -0.0012980916808105238 -0.010545789636212215 -0.0018135025483175542 0.0016712463024398634
-0.0534975771928403 0.0657156291390601 -0.03494656731734872 -0.006859825175982698 0.0010625226560016124 0.03173977649126633 -0.023198348384416523 0.07068162471106222

bias_2 f8 [10, 1]
00000000: 70c3 70e4 1420 babf a406 bedd fe1b 8c3f
00000010: 3953 9fc6 095e a93f a417 fd72 3c46 a9bf
00000020: 22b1 3ae0 b33d b0bf 266a f72c 19dc bb3f
00000030: 540d 823b 9495 93bf 1bdd 7322 3132 b53f
00000040: 242b 2f1b 29ad 7a3f ea84 6c4c 5615 9cbf
-0.10205202653084 0.013725272314107535 0.04954557942952537 -0.049363984142970524 -0.06344150757167147 0.10882718417944001 -0.019125286228257224 0.0827971181023383
0.006512795039223449 -0.027425144590897434
